model/inference_params.pth (torch, 340352 bytes, 33 tensors)

pos_embed f4 [1, 200, 64]
000000 84 c8 b9 bc b3 5f d2 be 5a b3 55 3e 37 1b ea be
       -0.022678621 -0.41088638 0.20869198 -0.45723888
000010 fc 14 05 bf d7 75 e2 3d 68 c1 89 3d fc c8 d7 be
       -0.51985145 0.110576324 0.067263424 -0.42145526
000020 c5 e5 f4 3e 25 f3 da 3c 21 1f 84 3e 9c 73 71 be
       0.4783155 0.026727268 0.25805 -0.23579258
000030 53 47 8f be 09 d3 44 3e 04 b3 86 be 00 f0 a7 3e
       -0.27984104 0.19221129 -0.26308453 0.32800293
000040 4a 80 43 be df 31 1f be d0 d1 d0 bd 38 a8 9f bd
       -0.19091907 -0.15546368 -0.101962686 -0.07795757
000050 33 16 48 be bf 7e 2c 3e fc 7c b6 3e 04 3c 27 be
       -0.19539718 0.16845225 0.3564223 -0.16331488
000060 0f f2 ff bd 6f 9d 5d bc df b4 41 be 8b 68 0b 3f
       -0.12497341 -0.013526305 -0.18916653 0.54456395
000070 1b da 02 bd 15 4e bd bd b0 f8 7a 3d 92 28 f6 3e
       -0.031946283 -0.092434086 0.061272323 0.48077828
000080 41 ac 44 3d 00 3d d7 be 9f 25 8b 3d be c0 1f 3e
       0.048015837 -0.42038727 0.06794285 0.15600869
000090 56 26 b2 3e 97 2e 02 bf a9 02 c3 3e 4b 60 22 be
       0.34794873 -0.5085234 0.38087967 -0.15857045
0000a0 81 01 c9 3d 5d d0 ea be 96 3f c4 3e 84 49 0c be
       0.0981474 -0.45862094 0.38329762 -0.13699919
0000b0 c8 7e 96 3e 43 77 1a be 19 cd ab 3e ce dc d1 3d
       0.293936 -0.15084557 0.33554915 0.10247193
0000c0 b3 05 5f 3d 7b 98 79 be 8c 3f be 3b 7e df ce be
       0.054448795 -0.24374573 0.005805915 -0.40404886
0000d0 65 10 b6 3b 76 ea 93 be 5b 46 bb 3e b4 dd 5d be
       0.0055561536 -0.28889817 0.36577114 -0.21666604
0000e0 94 23 bf 3e 9e e0 13 3d 20 19 78 3e 07 d1 3c 3d
       0.3733183 0.036102884 0.24228334 0.04609778
0000f0 87 bc b4 bd 0e 0d a9 3e ed 68 f1 3e f1 cf a3 3e
       -0.08825021 0.33017772 0.47150365 0.31994584
000100 d4 57 a5 3d c0 c9 d6 3b e7 92 8d 3c 2c ce 3a bd
       0.080733925 0.006554812 0.017281963 -0.045606777
000110 95 62 9d bd cc da ba 3d 73 5f 19 bc 29 86 94 bd
       -0.07684819 0.091237634 -0.009361136 -0.072521515
000120 35 c0 20 3e 21 da 8a bb c4 47 de bd f0 f1 e4 3c
       0.15698321 -0.004237429 -0.10853532 0.027947396
000130 d2 93 9a 3d 5d 68 30 3e 1a 96 a2 3d 66 8b 21 3d
       0.07547726 0.17227311 0.07938786 0.03943958
000140 d1 8d 7e bc 46 d5 a2 bd ac e4 bc 3c c1 03 26 bd
       -0.015536741 -0.07950835 0.023058258 -0.040530924
000150 25 c9 ec 3c 03 1b 58 3e 4e 2a 65 bd f9 65 4c bd
       0.028904507 0.21104054 -0.055948548 -0.049901936
000160 aa c1 87 3d 8a ba 4d 3d ad 46 60 bd 48 aa 54 3d
       0.06628735 0.050226726 -0.0547549 0.051920205
000170 9e fe e6 bc ea f5 cc 3d ae 30 34 bd 65 12 ac bd
       -0.028197583 0.10007842 -0.043991737 -0.08401946
000180 60 87 80 ba 06 e4 95 bc cc 05 8b bd d9 c3 21 bd
       -0.000980597 -0.018297207 -0.06788215 -0.039493416
000190 f3 6f 07 3d 4a dc ff bd c1 ae f1 bd fd 79 25 bc
       0.033065747 -0.12493189 -0.1180091 -0.010099885
0001a0 9a 32 c4 bd d6 71 35 3a 57 18 54 3c d3 f4 43 3c
       -0.09579964 0.0006921565 0.012945256 0.011960226
0001b0 6f 1c 86 bc 92 fe ac bd cd 47 4f bd 79 3b db 3d
       -0.01637098 -0.08446993 -0.050605584 0.10704703
0001c0 f6 ff c1 3d 88 d4 fe bc 30 c2 97 3c 10 a6 91 bc
       0.09472649 -0.031107202 0.018525213 -0.01777938
0001d0 2b 38 45 3d 3f 57 09 bb f8 1b 27 bd 81 46 51 3d
       0.04814927 -0.0020956544 -0.040798157 0.05109263
0001e0 fa 95 27 bd e1 5a bd 3c 4e 01 8a be 29 34 4b bd
       -0.040914513 0.023114624 -0.2695412 -0.04961029
0001f0 75 ec 4b 3d c3 a4 1f bd 00 21 22 38 d7 e3 1b 3e
       0.04978605 -0.03897549 3.8654543e-05 0.15223633
000200 ab 91 d6 3b af 41 e6 3d ce 22 cf 3d cb 5d 70 bd
       0.0065481267 0.11242997 0.1011406 -0.058683198
000210 1c ed 9f bd fa 59 fc 3d 2b 1e 71 3d 79 1b 0e 3d
       -0.07808897 0.12321849 0.05886666 0.03469417
000220 d5 44 11 3e 6e 4d f3 3b 8c d5 cf 3c 59 03 cc bd
       0.14186414 0.007425002 0.025370382 -0.09961576
000230 d3 13 a0 bd 82 ab b9 bb a6 7e 86 be cd 70 90 3e
       -0.07816281 -0.0056661973 -0.262685 0.2821106
000240 46 d1 24 be 9c aa 82 be 96 e5 57 3e 70 cd 2a be
       -0.16095456 -0.2552079 0.21083674 -0.1667993
000250 61 18 49 be 92 2d a0 3e 90 79 40 3e f4 19 f4 bd
       -0.19638206 0.31284767 0.18796372 -0.11919013
000260 b5 46 bb bd b1 39 30 3e 26 a6 47 3d 1e 3d 46 3e
       -0.09144346 0.17209508 0.048742436 0.19359252
000270 ea 45 dc bd 41 5c 72 3e 59 46 c3 3c b9 95 42 3b
       -0.107555225 0.23668005 0.023837255 0.0029691292
000280 81 fe f4 3a 2c 0d b1 bc ab 55 a3 be ac 95 47 bc
       0.0018691571 -0.021612726 -0.31901297 -0.012181681
000290 1d 8f 82 3e 48 ce aa bd 77 70 82 3c 66 d1 12 be
       0.25499812 -0.08340126 0.015922768 -0.14337692
0002a0 81 19 68 3e 2e a7 41 bd 6c 87 04 3e 1a 41 2b be
       0.22665979 -0.047278576 0.12942284 -0.16724053
0002b0 d0 29 a9 3d db 41 c3 bc 8d 94 ca bd 30 94 38 b9
       0.08259928 -0.023835113 -0.09891615 -0.00017602812
0002c0 d0 b6 8a bd dd b4 7c be 15 a1 53 3d 8b 01 cc be
       -0.0677315 -0.24678369 0.05166729 -0.39844927
0002d0 cf 5b 3a 3e 5b 24 b6 bd d3 de cf bd 85 41 92 bc
       0.18199085 -0.08893653 -0.10149922 -0.017853508
0002e0 b2 66 a2 bc 34 0d 09 3e 3b 51 43 3e be 96 9a 3d
       -0.01982436 0.13383943 0.19073956 0.07548283
0002f0 1e 7c 03 3e 1c 21 1e 3a a7 6c b9 3d bc d9 00 3e
       0.12840316 0.00060321554 0.09053927 0.12583059
000300 d1 29 2b bc 18 e6 16 3e 39 f7 a4 3d 16 f7 16 bd
       -0.0104469815 0.14736211 0.080549665 -0.036856733
000310 8f b5 d5 bc f1 fe 9f 3e 2e b1 16 3e 51 4a fd 3d
       -0.02608755 0.31249192 0.14716026 0.1236769
000320 33 9c cf 3d f9 56 14 3e 1b 2c c6 3e a1 b9 db bd
       0.101372145 0.14486302 0.38705525 -0.10728765
000330 2f 28 52 3b 0a ed e4 bd ab 08 93 be 49 36 aa 3e
       0.0032067408 -0.11178024 -0.2871755 0.3324454
000340 d7 ff c6 bd 10 31 d8 be c6 34 12 3e ed 20 1c be
       -0.09716766 -0.42224932 0.14277944 -0.15246935
000350 b5 27 96 bd 35 a8 f8 3e d5 60 8d 3d 82 57 b1 bd
       -0.07331792 0.48565832 0.06903235 -0.08659269
000360 c8 e4 5e bd 2a 36 53 3e 56 c8 1a 3d 9d 1d c9 3d
       -0.0544174 0.2062613 0.03778871 0.098201014
000370 f9 72 c1 bd 19 a5 e7 3d 7f 1f 05 bc a2 04 4d bd
       -0.094457574 0.11310787 -0.008125185 -0.050053246
000380 aa de d1 3d 56 bb 09 bd f5 d2 54 be a4 18 ef 3c
       0.10247548 -0.033625923 -0.20783599 0.029186554
000390 de fc 95 3e 6e b4 72 3d c2 73 f6 3a 24 1b 58 be
       0.29294485 0.059254102 0.0018802809 -0.21104103
0003a0 c7 5f 9d 3e 48 7f 3b 3d d2 6a 5a 3d 2c 5b 2f be
       0.30737135 0.04577568 0.053324528 -0.17124623
0003b0 f3 1e 03 3d df 44 db 3c 46 b3 42 be 89 e3 82 be
       0.032011937 0.026766239 -0.190137 -0.2556422
0003c0 34 b2 96 be 32 9d e7 be f7 83 8f be 12 36 b1 be
       -0.29432833 -0.45237118 -0.2803037 -0.34611565
0003d0 dd 4d a0 3e 3f 6f ee bc 43 8a 3c be 30 7b a0 3c
       0.31309405 -0.02910578 -0.18412118 0.01958999
0003e0 e7 92 a6 bd 3c 27 c2 3d 2a 03 42 3e 90 6b 22 3e
       -0.08133488 0.094801396 0.1894652 0.15861344
0003f0 52 2f 55 3e 9a 34 de ba 09 30 91 3c 73 38 e0 3d
       0.20818833 -0.0016952932 0.0177231 0.10948267

band_min f4 [200]
000000 00 00 20 45 00 30 2a 45 00 60 6a 45 00 10 61 45
       2560.0 2723.0 3750.0 3601.0
000010 00 c0 74 45 00 d8 80 45 00 58 81 45 00 50 7a 45
       3916.0 4123.0 4139.0 4005.0
000020 00 b0 72 45 00 80 63 45 00 d0 2e 45 00 80 29 45
       3883.0 3640.0 2797.0 2712.0
000030 00 a0 25 45 00 40 2b 45 00 a0 2c 45 00 a0 29 45
       2650.0 2740.0 2762.0 2714.0
000040 00 d0 24 45 00 00 20 45 00 00 20 45 00 00 20 45
       2637.0 2560.0 2560.0 2560.0
000050 00 10 20 45 00 00 20 45 00 00 20 45 00 40 1c 45
       2561.0 2560.0 2560.0 2500.0
000060 00 d0 18 45 00 40 13 45 00 20 0d 45 00 30 0b 45
       2445.0 2356.0 2258.0 2227.0
000070 00 30 08 45 00 00 02 45 00 e0 10 45 00 00 01 45
       2179.0 2080.0 2318.0 2064.0
000080 00 40 0d 45 00 70 1a 45 00 70 16 45 00 00 16 45
       2260.0 2471.0 2407.0 2400.0
000090 00 c0 21 45 00 c0 2a 45 00 30 2d 45 00 f0 04 45
       2588.0 2732.0 2771.0 2127.0
0000a0 00 50 30 45 00 e0 33 45 00 e0 2e 45 00 d0 2d 45
       2821.0 2878.0 2798.0 2781.0
0000b0 00 a0 22 45 00 d0 19 45 00 10 21 45 00 00 28 45
       2602.0 2461.0 2577.0 2688.0
0000c0 00 c0 26 45 00 f0 23 45 00 d0 25 45 00 b0 26 45
       2668.0 2623.0 2653.0 2667.0
0000d0 00 80 22 45 00 a0 0e 45 00 b0 08 45 00 80 08 45
       2600.0 2282.0 2187.0 2184.0
0000e0 00 80 fe 44 00 40 bc 44 00 60 c4 44 00 20 ca 44
       2036.0 1506.0 1571.0 1617.0
0000f0 00 80 ed 44 00 70 01 45 00 00 0c 45 00 60 11 45
       1900.0 2071.0 2240.0 2326.0
000100 00 80 0e 45 00 d0 0e 45 00 00 0f 45 00 70 0d 45
       2280.0 2285.0 2288.0 2263.0
000110 00 80 0a 45 00 d0 09 45 00 60 06 45 00 d0 01 45
       2216.0 2205.0 2150.0 2077.0
000120 00 a0 02 45 00 60 f9 44 00 a0 e2 44 00 00 cc 44
       2090.0 1995.0 1813.0 1632.0
000130 00 80 9e 44 00 c0 93 44 00 40 a1 44 00 60 9b 44
       1268.0 1182.0 1290.0 1243.0
000140 00 c0 ad 44 00 00 c0 44 00 20 c4 44 00 00 c4 44
       1390.0 1536.0 1569.0 1568.0
000150 00 20 c4 44 00 60 bb 44 00 00 bd 44 00 80 bf 44
       1569.0 1499.0 1512.0 1532.0
000160 00 80 c1 44 00 c0 c2 44 00 60 bc 44 00 c0 b2 44
       1548.0 1558.0 1507.0 1430.0
000170 00 80 b5 44 00 e0 b8 44 00 20 ad 44 00 00 b6 44
       1452.0 1479.0 1385.0 1456.0
000180 00 20 b5 44 00 a0 b3 44 00 80 a7 44 00 80 a2 44
       1449.0 1437.0 1340.0 1300.0
000190 00 c0 97 44 00 c0 8e 44 00 e0 81 44 00 80 7a 44
       1214.0 1142.0 1039.0 1002.0
0001a0 00 c0 7d 44 00 c0 7e 44 00 00 80 44 00 60 83 44
       1015.0 1019.0 1024.0 1051.0
0001b0 00 20 84 44 00 40 84 44 00 c0 85 44 00 c0 8b 44
       1057.0 1058.0 1070.0 1118.0
0001c0 00 c0 90 44 00 80 94 44 00 40 99 44 00 40 99 44
       1158.0 1188.0 1226.0 1226.0
0001d0 00 60 9a 44 00 60 9b 44 00 40 9b 44 00 e0 99 44
       1235.0 1243.0 1242.0 1231.0
0001e0 00 00 99 44 00 40 9b 44 00 40 99 44 00 c0 99 44
       1224.0 1242.0 1226.0 1230.0
0001f0 00 60 9c 44 00 60 9c 44 00 60 9b 44 00 20 9a 44
       1251.0 1251.0 1243.0 1233.0
000200 00 00 99 44 00 00 9a 44 00 00 97 44 00 c0 96 44
       1224.0 1232.0 1208.0 1206.0
000210 00 e0 95 44 00 00 94 44 00 c0 92 44 00 00 91 44
       1199.0 1184.0 1174.0 1160.0
000220 00 80 8e 44 00 a0 8d 44 00 20 8c 44 00 80 89 44
       1140.0 1133.0 1121.0 1100.0
000230 00 c0 85 44 00 40 83 44 00 00 80 44 00 c0 7b 44
       1070.0 1050.0 1024.0 1007.0
000240 00 c0 76 44 00 40 77 44 00 40 79 44 00 c0 7c 44
       987.0 989.0 997.0 1011.0
000250 00 00 7f 44 00 00 7d 44 00 c0 78 44 00 00 7a 44
       1020.0 1012.0 995.0 1000.0
000260 00 80 7e 44 00 80 81 44 00 40 81 44 00 40 7f 44
       1018.0 1036.0 1034.0 1021.0
000270 00 c0 80 44 00 40 81 44 00 40 81 44 00 c0 82 44
       1030.0 1034.0 1034.0 1046.0
000280 00 00 83 44 00 60 83 44 00 c0 82 44 00 e0 82 44
       1048.0 1051.0 1046.0 1047.0
000290 00 40 83 44 00 c0 82 44 00 20 81 44 00 80 81 44
       1050.0 1046.0 1033.0 1036.0
0002a0 00 60 82 44 00 c0 82 44 00 c0 81 44 00 e0 82 44
       1043.0 1046.0 1038.0 1047.0
0002b0 00 60 82 44 00 20 82 44 00 e0 81 44 00 80 81 44
       1043.0 1041.0 1039.0 1036.0
0002c0 00 a0 80 44 00 80 80 44 00 00 81 44 00 40 7e 44
       1029.0 1028.0 1032.0 1017.0
0002d0 00 80 80 44 00 40 7f 44 00 80 7f 44 00 40 7f 44
       1028.0 1021.0 1022.0 1021.0
0002e0 00 c0 7d 44 00 00 7d 44 00 00 7d 44 00 c0 7b 44
       1015.0 1012.0 1012.0 1007.0
0002f0 00 00 7b 44 00 40 7a 44 00 c0 7a 44 00 40 7a 44
       1004.0 1001.0 1003.0 1001.0
000300 00 00 7a 44 00 c0 79 44 00 c0 78 44 00 c0 78 44
       1000.0 999.0 995.0 995.0
000310 00 00 78 44 00 80 77 44 00 80 76 44 00 40 76 44
       992.0 990.0 986.0 985.0

band_max f4 [200]
000000 00 48 88 45 00 a0 a8 45 00 f8 b7 45 00 18 bd 45
       4361.0 5396.0 5887.0 6051.0
000010 00 10 d1 45 00 a0 e7 45 00 b0 ee 45 00 f0 ef 45
       6690.0 7412.0 7638.0 7678.0
000020 00 48 f1 45 00 48 e6 45 00 08 e9 45 00 e0 e8 45
       7721.0 7369.0 7457.0 7452.0
000030 00 60 e2 45 00 90 e9 45 00 08 ed 45 00 40 ea 45
       7244.0 7474.0 7585.0 7496.0
000040 00 18 e6 45 00 f0 df 45 00 58 dd 45 00 80 d9 45
       7363.0 7166.0 7083.0 6960.0
000050 00 70 d8 45 00 f0 d9 45 00 20 d6 45 00 88 d1 45
       6926.0 6974.0 6852.0 6705.0
000060 00 c0 d2 45 00 38 cf 45 00 d0 c8 45 00 58 cf 45
       6744.0 6631.0 6426.0 6635.0
000070 00 98 cd 45 00 10 bd 45 00 30 bf 45 00 a0 bf 45
       6579.0 6050.0 6118.0 6132.0
000080 00 20 c4 45 00 30 cb 45 00 b8 bf 45 00 38 b8 45
       6276.0 6502.0 6135.0 5895.0
000090 00 00 e3 45 00 8c 06 46 00 10 16 46 00 38 bf 45
       7264.0 8611.0 9604.0 6119.0
0000a0 00 0c 10 46 00 40 12 46 00 0c 0c 46 00 c4 09 46
       9219.0 9360.0 8963.0 8817.0
0000b0 00 a0 00 46 00 c8 e7 45 00 10 f6 45 00 00 06 46
       8232.0 7417.0 7874.0 8576.0
0000c0 00 9c 02 46 00 0c 04 46 00 4c 01 46 00 8c 02 46
       8359.0 8451.0 8275.0 8355.0
0000d0 00 c8 fe 45 00 f0 cd 45 00 80 c3 45 00 88 bd 45
       8153.0 6590.0 6256.0 6065.0
0000e0 00 58 a7 45 00 90 39 45 00 80 45 45 00 f0 4f 45
       5355.0 2969.0 3160.0 3327.0
0000f0 00 28 90 45 00 88 a9 45 00 58 c0 45 00 d8 ce 45
       4613.0 5425.0 6155.0 6619.0
000100 00 c0 ca 45 00 78 cc 45 00 18 cb 45 00 a8 cb 45
       6488.0 6543.0 6499.0 6517.0
000110 00 40 ca 45 00 68 c9 45 00 78 c3 45 00 d8 be 45
       6472.0 6445.0 6255.0 6107.0
000120 00 e0 b9 45 00 40 b1 45 00 68 9a 45 00 c0 73 45
       5948.0 5672.0 4941.0 3900.0
000130 00 30 04 45 00 40 e9 44 00 30 0a 45 00 a0 fe 44
       2115.0 1866.0 2211.0 2037.0
000140 00 30 2a 45 00 e0 4f 45 00 50 61 45 00 f0 4f 45
       2723.0 3326.0 3605.0 3327.0
000150 00 80 67 45 00 c0 64 45 00 10 6b 45 00 80 72 45
       3704.0 3660.0 3761.0 3880.0
000160 00 90 7b 45 00 a0 79 45 00 70 70 45 00 f0 4f 45
       4025.0 3994.0 3847.0 3327.0
000170 00 e0 4f 45 00 e0 63 45 00 b0 4f 45 00 40 63 45
       3326.0 3646.0 3323.0 3636.0
000180 00 80 61 45 00 c0 4f 45 00 b0 3d 45 00 90 2d 45
       3608.0 3324.0 3035.0 2777.0
000190 00 60 0a 45 00 a0 e0 44 00 60 8f 44 00 00 86 44
       2214.0 1797.0 1147.0 1072.0
0001a0 00 20 8a 44 00 c0 8f 44 00 c0 95 44 00 80 ae 44
       1105.0 1150.0 1198.0 1396.0
0001b0 00 00 c3 44 00 00 b2 44 00 00 c7 44 00 a0 fd 44
       1560.0 1424.0 1592.0 2029.0
0001c0 00 f0 15 45 00 b0 25 45 00 40 31 45 00 30 37 45
       2399.0 2651.0 2836.0 2931.0
0001d0 00 40 3a 45 00 d0 3a 45 00 70 38 45 00 00 2e 45
       2980.0 2989.0 2951.0 2784.0
0001e0 00 70 2f 45 00 00 32 45 00 30 2d 45 00 30 2c 45
       2807.0 2848.0 2771.0 2755.0
0001f0 00 10 30 45 00 c0 2f 45 00 00 2a 45 00 d0 27 45
       2817.0 2812.0 2720.0 2685.0
000200 00 70 26 45 00 80 22 45 00 40 20 45 00 60 1c 45
       2663.0 2600.0 2564.0 2502.0
000210 00 40 18 45 00 f0 12 45 00 60 0f 45 00 a0 09 45
       2436.0 2351.0 2294.0 2202.0
000220 00 10 04 45 00 50 00 45 00 c0 f6 44 00 20 e3 44
       2113.0 2053.0 1974.0 1817.0
000230 00 e0 c8 44 00 80 b2 44 00 c0 95 44 00 a0 86 44
       1607.0 1428.0 1198.0 1077.0
000240 00 a0 83 44 00 a0 85 44 00 60 91 44 00 60 a9 44
       1053.0 1069.0 1163.0 1355.0
000250 00 60 ba 44 00 a0 af 44 00 00 92 44 00 80 93 44
       1491.0 1405.0 1168.0 1180.0
000260 00 60 ac 44 00 60 c6 44 00 60 c5 44 00 80 b4 44
       1379.0 1587.0 1579.0 1444.0
000270 00 e0 b4 44 00 c0 c0 44 00 20 cf 44 00 00 d4 44
       1447.0 1542.0 1657.0 1696.0
000280 00 20 d5 44 00 e0 d4 44 00 e0 d4 44 00 00 d4 44
       1705.0 1703.0 1703.0 1696.0
000290 00 60 d2 44 00 00 ce 44 00 80 cb 44 00 60 ca 44
       1683.0 1648.0 1628.0 1619.0
0002a0 00 c0 c8 44 00 c0 c6 44 00 40 c4 44 00 60 c8 44
       1606.0 1590.0 1570.0 1603.0
0002b0 00 60 c7 44 00 00 c3 44 00 40 c1 44 00 c0 bb 44
       1595.0 1560.0 1546.0 1502.0
0002c0 00 00 ba 44 00 80 b6 44 00 60 b6 44 00 40 b1 44
       1488.0 1460.0 1459.0 1418.0
0002d0 00 60 b1 44 00 20 af 44 00 20 ab 44 00 40 ac 44
       1419.0 1401.0 1369.0 1378.0
0002e0 00 80 a4 44 00 00 a2 44 00 00 a2 44 00 20 9b 44
       1316.0 1296.0 1296.0 1241.0
0002f0 00 00 98 44 00 40 99 44 00 c0 97 44 00 20 92 44
       1216.0 1226.0 1214.0 1169.0
000300 00 60 91 44 00 80 93 44 00 a0 8e 44 00 c0 8a 44
       1163.0 1180.0 1141.0 1110.0
000310 00 40 8d 44 00 00 88 44 00 00 83 44 00 20 81 44
       1130.0 1088.0 1048.0 1033.0

value_embed.weight f4 [64, 1]
000000 e5 29 a1 be 98 ef 6b 3f c5 4c 70 3e 40 1b ca 3d
       -0.31477275 0.92162466 0.23466785 0.09868479
000010 7d 4b 9b 3d 46 c1 29 be 03 a4 67 3f 4a 5c 7e 3e
       0.075827576 -0.16577634 0.9048464 0.24839893
000020 96 d4 6f 3e 67 93 2f bf b7 b5 ee be 4a f9 1d bf
       0.23420939 -0.68584293 -0.46623012 -0.6170851
000030 ec d9 4e bf fa d4 a6 be f6 b4 2b 3e 80 32 09 3f
       -0.8080127 -0.32584363 0.1676825 0.5359268
000040 96 7f 52 bf 42 3d ce 3d 84 f7 79 3f 0e e6 8b bf
       -0.8222593 0.10070278 0.97643304 -1.0929582
000050 a6 e9 4e bf 2b 7a 6e 3e 29 bd 34 3f a9 63 63 bf
       -0.8082527 0.23288791 0.70601135 -0.88823944
000060 e5 36 08 3c 6b 82 71 3f 7f d9 60 bf f5 6b fb 3e
       0.008313869 0.9433963 -0.8783187 0.49105802
000070 a9 ac f1 be 92 6d 33 3f 12 19 84 bd ea f9 38 3f
       -0.47202042 0.70089066 -0.06450094 0.7225634
000080 bc ac 23 3f 5f 77 fd be 84 cd 88 bf 8b d2 19 3f
       0.63935447 -0.49505135 -1.0687718 0.6008689
000090 0d 78 56 3e eb 25 36 bf 1e 28 de 3e 31 80 32 bf
       0.20944233 -0.7115161 0.43389982 -0.69726855
0000a0 62 b6 29 be 19 44 08 bf c0 78 83 3f 76 d7 44 3e
       -0.1657348 -0.5322891 1.0271225 0.19222817
0000b0 ab e7 c1 3e 50 c6 31 bf 94 fc 2f bf 22 b2 84 be
       0.3787206 -0.69443226 -0.6874478 -0.25917155
0000c0 e7 a4 75 3d 2a c2 20 3d ce 21 60 be 37 a2 1d be
       0.059971716 0.03924767 -0.21887895 -0.15393911
0000d0 06 25 24 3f 2e 40 13 3e 35 40 b9 3e ac 0a d5 be
       0.64118993 0.14379951 0.361818 -0.41609704
0000e0 5a c6 f8 3e 44 39 8a 3f 9a f0 af 3e 94 e7 c0 3b
       0.4858883 1.0798726 0.34363252 0.0058869813
0000f0 8c 5c 15 3f 80 df 5b 3f 33 13 28 3f 22 84 bb 3e
       0.5834434 0.8588791 0.65654296 0.36624247

value_embed.bias f4 [64]
000000 33 38 9b 3d 1c 03 d4 be 49 f4 11 3f 20 64 b7 be
       0.075790785 -0.41408622 0.57013375 -0.35818577
000010 a5 79 9d 3e 4e 4f 59 bf 47 60 11 bf 7e 27 26 bf
       0.3075687 -0.84886634 -0.5678753 -0.6490401
000020 ea 33 32 3f 82 c0 24 3f 27 b7 10 bf ab d4 51 3f
       0.69610465 0.64356244 -0.5652947 0.8196513
000030 85 7a 3a bf dd a1 cd bd a2 02 61 3f 00 80 05 bf
       -0.728432 -0.100406386 0.8789464 -0.5214844
000040 e9 52 bd bd 6a e4 55 3f f5 a6 18 bf de 9a 46 3f
       -0.092443295 0.8355166 -0.59629756 0.7758006
000050 8f 06 9f 3e 23 4f 0d bf 83 19 37 bd ab 40 a5 3e
       0.3105969 -0.5519888 -0.044702064 0.322759
000060 ba 51 60 be 7d 62 c5 be 0f df bf 3e 4b 21 82 3d
       -0.21906176 -0.38551703 0.37474868 0.063540064
000070 63 27 15 3e 05 80 a0 3e 15 be 3a 3f 21 24 10 3f
       0.14565806 0.3134767 0.7294629 0.5630513
000080 d4 db 42 bf 4f 29 05 3f 02 1c 4c 3f 9a 5e 94 be
       -0.7611668 0.52016157 0.79730237 -0.28978425
000090 de c5 ba be db d4 26 bf 01 e0 e6 bd 0c 7b 68 3f
       -0.36479086 -0.6516854 -0.11273194 0.90812755
0000a0 cd 5d 07 3f 56 f9 e8 bd 27 21 95 3e c3 e1 79 be
       0.52877504 -0.11375682 0.29126856 -0.24402528
0000b0 8b e5 d5 bd 4f c3 39 3e b7 94 e3 3e 08 f8 b8 3d
       -0.104441725 0.1814091 0.44449398 0.09031683
0000c0 31 43 f2 bd 17 e1 e4 3d 3e fa 9f 3e d0 91 06 3e
       -0.11829222 0.11175745 0.31245607 0.1314156
0000d0 89 52 a2 be c9 cc 3b bf 4c ea ed 3d e0 63 3a 3f
       -0.31703594 -0.7335935 0.11616954 0.7280865
0000e0 6a e9 92 ba b3 c1 09 bf ff 06 84 3e 44 fd 43 3f
       -0.0011208479 -0.53811187 0.25786588 0.7655833
0000f0 b4 29 62 bd b8 42 d4 be 11 c2 33 3f ec a4 13 3f
       -0.055215552 -0.41457152 0.70217997 0.57673526

input_norm.weight f4 [64]
000000 5f 1e 83 3f 08 f0 8f 3f 4f cb 6b 3f 20 49 7e 3f
       1.0243644 1.1245127 0.921071 0.9933033
000010 b7 11 83 3f 43 02 67 3f 52 4e 94 3f 83 21 6d 3f
       1.0239781 0.90237826 1.1586401 0.9262926
000020 01 07 5e 3f 62 e3 90 3f 27 e1 74 3f b3 57 82 3f
       0.8672944 1.1319392 0.95656055 1.0183014
000030 5d f7 50 3f d4 dd 7c 3f f5 33 72 3f 8a b7 83 3f
       0.81627446 0.9877598 0.9461053 1.0290387
000040 03 c7 75 3f 07 e9 69 3f d9 9b 90 3f a3 7b 8b 3f
       0.9600679 0.91371197 1.1297561 1.0897106
000050 48 5c 99 3f bb 68 6f 3f 92 35 92 3f 1d ac 90 3f
       1.1981287 0.9351918 1.1422598 1.1302525
000060 9d c8 7b 3f 40 e0 8f 3f 66 20 8f 3f fe 8e 9f 3f
       0.98352987 1.1240311 1.1181762 1.2465513
000070 73 93 8a 3f ea 3a 60 3f 8f 30 64 3f be 0f 75 3f
       1.0826248 0.87589896 0.89136595 0.95727146
000080 0a 8b 77 3f a0 b6 89 3f 18 25 95 3f e5 f8 86 3f
       0.9669653 1.0758858 1.1651945 1.0544707
000090 ad 89 7d 3f fd 46 75 3f da 98 8a 3f fc 38 7d 3f
       0.990382 0.95811445 1.0827897 0.98915076
0000a0 e2 d3 7b 3f 2b 6b 7f 3f 2e c2 81 3f 73 71 81 3f
       0.9837018 0.997729 1.0137384 1.0112747
0000b0 87 bc 81 3f c5 42 87 3f c6 5e 8b 3f 24 14 8b 3f
       1.0135659 1.0567251 1.0888298 1.0865521
0000c0 9d 49 89 3f f3 c4 9b 3f 42 c3 8b 3f a2 7c 99 3f
       1.072559 1.2169479 1.0918963 1.199116
0000d0 ac 21 8b 3f ab 4b 66 3f f5 86 83 3f 15 28 83 3f
       1.0869651 0.8995921 1.0275561 1.0246607
0000e0 59 8c 8d 3f 29 4c 8f 3f 0e dd 74 3f 58 92 71 3f
       1.1058456 1.1195117 0.956498 0.9436393
0000f0 8c bf 87 3f 22 92 87 3f 14 84 70 3f 22 90 6c 3f
       1.060533 1.0591471 0.93951535 0.9240743

input_norm.bias f4 [64]
000000 1a 8d 5a 3d 29 f3 1f 3d 83 27 0b be 44 8c 6e 3d
       0.05335722 0.039050255 -0.13589291 0.058239236
000010 1b cd b8 bd c8 eb 0f 3e 44 e7 63 3d 23 9e db 3d
       -0.09023496 0.14054787 0.055640474 0.107235216
000020 2f b0 41 be e8 88 8f bd da 4c d8 3d a4 63 01 be
       -0.18914865 -0.07008535 0.10561533 -0.12635666
000030 76 82 5a 3e f3 b5 d5 3d 1e 11 03 be 5c c8 b6 3d
       0.2133883 0.10435095 -0.12799498 0.08924934
000040 a1 cc 9a 3d 72 7f 4a be df ce f9 3c 23 aa a4 bc
       0.07558561 -0.19775179 0.030494152 -0.020100659
000050 82 7b c8 3c 8a ee c6 3d 36 c7 17 bd c2 bc fb 3c
       0.024472956 0.097134665 -0.037055217 0.030729655
000060 c1 a8 ca 3d c0 0b a8 bc 95 ba ee 3c e7 3d a4 bd
       0.098954685 -0.020513415 0.029141704 -0.080196194
000070 31 34 95 3d 9e 6b 43 be be 82 19 be 22 aa a0 bd
       0.07285345 -0.19084021 -0.1499128 -0.0784495
000080 b4 20 10 3e b6 fe a3 bd d3 22 57 3c f7 14 83 3c
       0.14074975 -0.08007567 0.013130861 0.016001208
000090 d9 0a d6 3d 69 c5 9c 3d 9b 4e d6 3c a7 40 94 bd
       0.10451288 0.076548405 0.026160529 -0.07238894
0000a0 e8 ef bb bd 1a 49 ad 3d 66 82 60 bd f6 9d d6 3d
       -0.09176618 0.08461209 -0.054811858 0.104793474
0000b0 aa f8 ce 3c ea c9 b7 3c 10 ca 51 bb 15 83 31 3d
       0.025265057 0.022435147 -0.0032011308 0.0433379
0000c0 04 a6 f3 3d 0e 7c 69 bc b8 0a 89 bd 8c 18 7d bb
       0.11896899 -0.014250768 -0.066914976 -0.0038619367
0000d0 7b cf 08 3d d2 4c 3d 3e a3 9f 97 bd 63 48 15 be
       0.033400994 0.18486336 -0.07403495 -0.14578395
0000e0 2e 24 99 bd 5c 3e b2 3b 6f fd 08 be 24 17 c4 bd
       -0.07477604 0.0054395627 -0.13377927 -0.09574726
0000f0 6a 39 38 bd 6b c5 a3 3d 15 4c e2 bd cb f9 f1 bd
       -0.04497663 0.07996639 -0.11049668 -0.11815222

transformer.layers.0.self_attn.in_proj_weight f4 [192, 64]
000000 8e 01 74 3e 99 b3 8e bd 9c 29 2c be 58 a7 83 bd
       0.23828718 -0.06967849 -0.16812748 -0.06428403
000010 77 a0 82 bd 78 eb e3 3d 21 dc 31 3e 28 e7 d0 3c
       -0.063782625 0.111288965 0.17369129 0.025500849
000020 97 04 ae 3d e2 6b 76 be 79 aa 48 bc c6 2d f7 bd
       0.08496969 -0.24064592 -0.012247675 -0.120692775
000030 f4 21 80 3c c6 30 3e 3e 58 17 91 3d 12 25 f6 3c
       0.01564119 0.18573293 0.070845306 0.030046973
000040 f6 82 e5 bd b3 85 bd bd 78 d6 11 3e de b9 fd bd
       -0.112066194 -0.09254017 0.1424197 -0.12388967
000050 26 0e 79 bd 5c 56 a8 bd 97 f4 88 3c b3 07 ac bd
       -0.06080451 -0.08219597 0.016718192 -0.08399906
000060 86 33 09 3e b8 06 45 3e 1b 0f 96 3d b9 dd 52 bd
       0.13398561 0.19240844 0.073271 -0.051480982
000070 1c 61 79 3c bf 3a 0e be 0c 91 aa bc 13 d3 dc 3d
       0.015220907 -0.13889597 -0.020821117 0.10782447
000080 5a a3 96 bd 42 8f 40 be 92 70 15 bd f2 b8 87 bd
       -0.073553756 -0.18804649 -0.03648431 -0.066270724
000090 61 3f e0 bd 63 f7 cd bd 1f 2b 2a 3d 5d 94 d0 bd
       -0.109495886 -0.10056951 0.04154503 -0.10184548
0000a0 d8 7a 77 be 2d e4 25 3d a8 41 55 bd 32 7b 04 3e
       -0.24167955 0.04050081 -0.052064568 0.1293762
0000b0 3d 62 65 3e 71 a5 d1 bd 7d b0 f7 3d 3f 67 ae 3e
       0.22400756 -0.102366336 0.12094209 0.34063146
0000c0 70 54 3d 3e d7 71 a2 3a b4 08 88 bd 8b 38 4c 3e
       0.18489242 0.0012393546 -0.06642285 0.19943444
0000d0 68 c7 56 3c 59 46 51 bd 43 1c c2 bd 48 ff 23 bb
       0.013109066 -0.05109248 -0.09478047 -0.0025023986
0000e0 cb 19 93 3d 40 c2 05 3e bb 61 3b 3d 2f 9a b8 3c
       0.07182654 0.13062382 0.0457475 0.022534458
0000f0 ee fb b0 3a 7e 11 7e 3e a0 07 63 bb 1d a6 cc bd
       0.0013502815 0.2481136 -0.0034641996 -0.09992621
000100 68 37 ec 3d 25 ce 25 3e 23 51 35 be d0 bc 5b 3e
       0.115340054 0.16191919 -0.17706732 0.21458745
000110 62 5d 1b bd 2a 60 4d 3e ad 03 19 3e 67 4b 32 3e
       -0.037930854 0.20056215 0.14942808 0.17411576
000120 9c 22 42 be eb 03 c1 3d ca b9 6a 3e 5b af 30 be
       -0.18958515 0.094245754 0.22922435 -0.17254393
000130 a0 9c ea 3d b5 28 1e 3e a9 e0 cd bd 72 59 19 3a
       0.11455655 0.15445216 -0.10052616 0.0005849815
000140 df 1c 0e bc d4 88 67 be bb c7 c0 3d b8 c1 6b bd
       -0.008673876 -0.2261079 0.094130956 -0.05755779
000150 06 44 6a 3e 9e 68 16 3e 1d 8d 9d bd b0 db 54 3e
       0.22877511 0.14688346 -0.07692931 0.20786929
000160 4f d9 2a 3e d9 fe cc bd 7e 66 a3 3e 36 3b 67 be
       0.16684459 -0.10009546 0.31914133 -0.22581181
000170 47 c5 41 3e c4 33 04 3d 51 eb 0b bd e6 ee 55 3c
       0.18922912 0.03227593 -0.034159962 0.013057446
000180 ed 3d 70 3e 15 97 e7 bd 5f ed 37 be fe 52 af 3d
       0.23461123 -0.113081135 -0.17961644 0.085607514
000190 ad 26 3f 3e e1 40 56 3e 31 86 51 3e 9d b9 5d bc
       0.18667097 0.20923187 0.20461346 -0.013533023
0001a0 11 35 db bd 5c fa 81 bc 92 ad 7d bc c8 1d f2 bc
       -0.10703481 -0.015866451 -0.015483277 -0.029555216
0001b0 d6 87 54 3e 5e 31 1b 3e f3 d8 b4 3d 16 17 32 3e
       0.20754942 0.15155551 0.08830442 0.17391619
0001c0 77 e8 a8 bc ec 8a 2b be 61 8e 4f be 13 d9 43 bd
       -0.02061866 -0.16752213 -0.20269157 -0.04781444
0001d0 42 a8 fb 3d 24 b2 de 3d db 47 18 bd d2 77 d9 bc
       0.12287952 0.108738214 -0.0371779 -0.026546393
0001e0 8b 2d 61 be 6e ce fc 3d 18 57 39 be f8 ab 58 bd
       -0.2199003 0.12344061 -0.1809963 -0.052898377
0001f0 12 35 86 be 1f 55 ff 3d 23 5f b4 bd a8 0e e6 bc
       -0.26212364 0.124674074 -0.088072084 -0.02808316
000200 ea 48 20 3e c2 9b 5d 3d 63 6a 38 be 97 6f 48 3e
       0.15652815 0.05410362 -0.18009333 0.19573818
000210 e4 32 0b be 64 91 83 3e 79 1d 12 3e d6 10 6c 3e
       -0.13593632 0.25696862 0.14269055 0.23053297
000220 e2 fd e2 bd 7f d9 41 bd a9 5b 3e 3e d7 28 2e bd
       -0.110835806 -0.04732656 0.18589653 -0.042519417
000230 57 58 db 3d b5 e9 a2 3d 3e 86 2a be 1c 2b 80 3e
       0.10710209 0.07954732 -0.16652772 0.2503289
000240 9d 9f 99 3b 83 05 6d be c8 36 22 bd 32 90 e6 bd
       0.004688217 -0.23146634 -0.039603025 -0.11257972
000250 e2 3f 9e 3d f0 65 03 3e 87 af 11 bd 27 12 5d 3e
       0.077270284 0.12831855 -0.035567787 0.21588956
000260 5a 09 ee bd 42 82 22 3c b9 a9 a7 3e d4 e3 44 be
       -0.116228774 0.009918751 0.32746676 -0.19227535
000270 6e 50 fa bb 34 45 79 be 62 05 21 be d5 7b 70 be
       -0.0076389825 -0.24342805 -0.1572471 -0.23484738
000280 5a 39 33 3e 3c 15 c4 bc 20 6f 21 bc 2a 2f cc bd
       0.17502347 -0.023935907 -0.009853154 -0.09969933
000290 b5 b2 c5 3d 36 0b 99 3d e2 5c c8 3d bc 1e 18 3d
       0.09653226 0.074728414 0.09783341 0.037138686
0002a0 0e fa e5 bc 59 2f dc 3c 27 47 aa bb 8d 7c 86 bd
       -0.028073337 0.026878046 -0.0051964703 -0.06566725
0002b0 d5 bd 34 3e 9f 48 44 3e a2 98 b6 bd 1f b4 90 bd
       0.1765054 0.19168328 -0.08915831 -0.07065605
0002c0 ba d2 8d 3d 5b ee 54 be ff 36 4b be 69 1c 16 be
       0.069249585 -0.2079405 -0.19845198 -0.14659275
0002d0 d7 93 ef bc c6 83 fc 3c 1d 7d a6 bd b3 bb c3 bd
       -0.0292453 0.030824553 -0.08129332 -0.09557285
0002e0 0c 5d 3a be 8d 80 e8 bc 26 4e b6 bd 29 98 a1 bd
       -0.18199557 -0.02838161 -0.089016244 -0.0789035
0002f0 f6 9d 35 3d 79 da e1 3b 4f 11 71 be 49 1f f6 3c
       0.044340096 0.006892499 -0.23541759 0.030044215
000300 15 ed d1 bd bb 0b 3a be e8 a5 15 3d 25 a6 cb 3b
       -0.10250298 -0.18168537 0.036535174 0.0062148743
000310 93 3a c6 3d 30 89 11 3e 7c bd 6e bc ee 89 df 3d
       0.09679141 0.14212489 -0.014571544 0.1091498
000320 89 bb cf bd ea 4b 17 3e 89 eb c3 3d 76 bc 3c 3e
       -0.10143191 0.14775053 0.09566409 0.18431267
000330 89 5a de bb 8a 5a 93 bd dd f4 1b be a1 49 09 be
       -0.006785695 -0.07195003 -0.15230127 -0.13406993
000340 16 6e 87 bd df e4 ab bd cd 35 03 be 0f fa a2 3e
       -0.06612794 -0.08393263 -0.12813492 0.31831405
000350 68 f4 cc 3d 1a 44 2b 3d 70 89 50 be 09 3c b0 3d
       0.10007554 0.041812994 -0.20364928 0.08605201
000360 e8 05 43 be c0 d5 01 bc 9f 56 04 3e 51 43 41 bd
       -0.19045222 -0.007924497 0.12923668 -0.04718334
000370 b4 9d 25 3d 3b 24 c5 3d 6c 31 0b 3e 42 8b 82 bd
       0.0404336 0.09626051 0.13593072 -0.063742176
000380 d5 73 eb bc bf 1e 86 3e 98 9c 99 3d 64 df 01 bc
       -0.028741756 0.26195332 0.07500571 -0.007926796
000390 8d 58 06 3e b5 7b db bd fd ee 16 be 78 86 b6 bd
       0.13119717 -0.107169546 -0.14739604 -0.08912367
0003a0 ab 20 b7 3e c3 d8 0b 3e 78 aa 3b be 5b 03 88 be
       0.3576711 0.13656907 -0.18326747 -0.2656506
0003b0 67 eb 41 be 97 9b f5 3d a4 24 0a 3d fe d6 af be
       -0.18937455 0.11992567 0.03372635 -0.34343714
0003c0 53 4b 15 be f7 3b 7a be e4 c9 36 be 45 4b 5b be
       -0.14579515 -0.24436937 -0.17850453 -0.21415432
0003d0 87 86 48 3d 5a 47 2d be 16 00 00 be f2 48 22 3e
       0.04895642 -0.1692175 -0.12500033 0.15848139
0003e0 26 01 10 be 0a 22 91 be cb 0e 3c 3e 09 92 f7 3d
       -0.14062938 -0.28346282 0.18365018 0.12088401
0003f0 75 a9 42 3c 1c 1f dc be 0c c1 ed bd 42 8e 07 3e
       0.011881222 -0.42992485 -0.116090864 0.13237861

transformer.layers.0.self_attn.in_proj_bias f4 [192]
000000 46 23 0a bd 92 75 c1 bd a4 2a b3 bd 53 18 79 3c
       -0.033725046 -0.09446253 -0.087483674 0.015203553
000010 f1 4b 15 3e db 95 3d 3d a0 5d 1c bd 93 29 94 3d
       0.1457975 0.04628549 -0.038175225 0.07234492
000020 56 73 69 bd f6 c8 97 bd 59 0c b1 bd cd 08 c5 bd
       -0.05699476 -0.07411377 -0.08644933 -0.09620819
000030 a1 1b e2 3d 10 3d 17 3e ab cb a1 3d 7a 05 18 3e
       0.11040426 0.14769387 0.07900175 0.14845839
000040 a2 2c b5 3d bf a0 1a be 8e 75 0c be 6c 25 1a 3e
       0.08846404 -0.15100382 -0.13716719 0.15053338
000050 2a 02 be bd e3 db f6 3d b8 52 0e be f2 be d9 3d
       -0.092777565 0.12053659 -0.13898742 0.10632123
000060 b5 0c 02 bd 16 25 79 3d ef f7 ae bd aa 32 5a bd
       -0.0317504 0.060826384 -0.08543383 -0.053270973
000070 66 54 91 3d 05 84 49 3c 7e 04 3a bd 71 6a 16 bd
       0.07096176 0.012299542 -0.04541444 -0.036722604
000080 6a d2 80 3d 9d 27 f5 bd 08 ad 09 be a9 c2 15 3e
       0.06290133 -0.11970446 -0.13444912 0.14625038
000090 f2 6d d4 3d 94 7d 04 be 73 e4 49 be e9 c8 6e 3d
       0.10372533 -0.12938529 -0.19716053 0.05829707
0000a0 2f 68 46 3d d6 82 08 3e 12 51 5d bc 22 fa 0d 38
       0.0484392 0.1333116 -0.013508098 3.3849974e-05
0000b0 30 97 5a 3d 9d a7 0c be b8 0c 82 bc 3e 3b af 3d
       0.05336684 -0.13735814 -0.015875205 0.085562214
0000c0 72 25 ba bd 8e 73 d9 bc 42 ca cb 3d 16 5c 5a bd
       -0.090891734 -0.026544359 0.09950687 -0.053310476
0000d0 47 7e 7b bd a2 ca 13 3d 8f 65 b2 bd 05 ad 6e bc
       -0.061399724 0.036081918 -0.08710777 -0.014567618
0000e0 73 97 0a be b2 7f 04 3e 1e fc 44 3e 6e 5b 09 be
       -0.13534336 0.12939337 0.192368 -0.13413784
0000f0 a0 16 d9 3d af f2 2b 3e 8e a9 44 be 56 00 11 3e
       0.106000185 0.16791795 -0.19205305 0.14160284
000100 cc ba 63 bc 04 4e 4c bd cf f1 d2 bd 9f 42 40 3b
       -0.013899516 -0.04987909 -0.103000276 0.0029336584
000110 84 91 d7 3d b6 bb 12 3d c0 21 67 bc bf 2e 37 3d
       0.10525802 0.035823546 -0.014107168 0.044722315
000120 01 9e 12 3d 02 e3 96 3c 96 9b 82 3d 45 76 b8 3c
       0.035795216 0.018418793 0.06377332 0.022517333
000130 f4 fe 03 bd f0 df cb bd bc c9 8b bd e3 4a c8 bc
       -0.032225564 -0.09954822 -0.06825587 -0.024449771
000140 3e 93 98 3d 94 85 b0 bd 97 8d b4 bd 99 55 94 3d
       0.07449959 -0.08619228 -0.088160686 0.07242889
000150 ae cc 8c bd 3a 98 c0 3d 0d 8b a0 bd c0 e1 74 3d
       -0.06874977 0.09404035 -0.07839022 0.059785604
000160 75 60 37 3c 0e d8 b8 bc 6c b8 1f 3d 9a 4d 33 3d
       0.011192431 -0.02256396 0.038994238 0.04377518
000170 fb c9 0f bc f6 7a b4 3b 29 a6 0a 3d 23 25 10 3d
       -0.008776183 0.005507822 0.03384987 0.035191666
000180 04 ed 00 3d 0c 06 8f bc 01 0d f3 bc 01 c2 2a 3d
       0.031476036 -0.017458938 -0.029669287 0.041688923
000190 b0 df 20 3d 01 c1 0f bd 01 74 5b bd 5e 53 04 3d
       0.039275825 -0.035096172 -0.053577427 0.032306068
0001a0 e8 13 d4 bc d1 09 1a be 44 42 b9 3d c4 b4 50 bd
       -0.025888398 -0.15042807 0.09045842 -0.05095364
0001b0 d5 51 c9 bd 41 38 e0 3c c4 74 d1 3d 71 ae 96 bd
       -0.09830061 0.027370574 0.102273494 -0.07357491
0001c0 97 e1 b5 bc 36 45 2b bb 5c 33 77 3b 75 f4 2a bb
       -0.022202296 -0.0026133782 0.0037719822 -0.002608565
0001d0 86 4f 98 bc 96 45 04 3c d2 5d dd bc b4 85 29 3c
       -0.018592607 0.008073231 -0.027022276 0.010346819
0001e0 38 9a 3b 3a 04 99 04 3c f9 78 12 bb 43 2a 30 bc
       0.0007156464 0.008093122 -0.0022349937 -0.0107522635
0001f0 75 65 19 3c fd 39 ca 3b 92 9d eb bb a1 bb 78 3c
       0.009362568 0.0061714635 -0.0071904147 0.015181453
000200 95 74 49 bc 3c b6 75 bc 7d a3 0a bc ad d2 ff bb
       -0.012295862 -0.014997061 -0.00846183 -0.007807097
000210 f7 63 0d 3c 52 05 25 bb e4 d6 b2 bb 6b bb ba bb
       0.0086297905 -0.0025180173 -0.005457746 -0.0056986115
000220 70 a4 88 3a 20 2e 55 b7 d8 af 98 bc 87 8c 47 bc
       0.0010424983 -1.2706529e-05 -0.018638536 -0.0121795
000230 67 0e 1e 3b 63 f7 e4 bb e8 8c 84 39 50 9c 41 bc
       0.0024117471 -0.0069874986 0.00025281985 -0.011817053
000240 5f 6d b0 bc a5 1a 93 bc 7f ae 34 bc a3 5d 84 bc
       -0.021536527 -0.017957041 -0.011027931 -0.01615793
000250 22 28 8e bc 99 4e 51 bb 2d 03 30 3a e9 a9 ea 3c
       -0.017353121 -0.0031937717 0.00067143404 0.028645473
000260 0e 8f 47 3c 98 a0 44 3c fc 23 e4 bb 1e 1d 9f bb
       0.012180103 0.012001179 -0.0069622975 -0.004855766
000270 72 fc 26 bc 5e 7b e4 bc 23 39 5a bc 52 35 dd bb
       -0.010192024 -0.027890857 -0.0133192865 -0.006750741
000280 7d f9 53 bb cc cb 9e 3c a6 d6 c7 3c 9b d4 00 bc
       -0.0032344752 0.019384287 0.024394345 -0.007863189
000290 8f af 9f 3c ea 4d cc 3c 8f 65 71 bc 36 b4 17 bd
       0.019492893 0.024939496 -0.014733686 -0.037037097
0002a0 b4 c3 5b 3c b8 eb 38 bb 7f 8e d9 bb 50 78 6e bb
       0.0134133585 -0.0028216671 -0.0066393013 -0.003638763
0002b0 a1 2e f8 3c 22 4f d5 bb e8 a7 97 bc 6f 99 1d ba
       0.030295672 -0.0065096775 -0.018512681 -0.0006011938
0002c0 df 6b 3d 3c 54 16 61 bb fc 8e c3 3b 4e e2 78 3c
       0.011561363 -0.0034345584 0.005967973 0.015190674
0002d0 ec 4b d6 bc 0e 02 aa 3b 8c e8 56 3b 61 32 a3 bb
       -0.02615925 0.005188233 0.0032792417 -0.004980371
0002e0 3b 66 b2 bc 27 28 bf bb 57 87 b8 3b 0d 37 a6 3b
       -0.021777263 -0.005833644 0.005631368 0.0050724805
0002f0 16 b2 a2 3c 13 66 25 bc 93 d0 d9 bc 99 5c 38 bc
       0.019860309 -0.010095137 -0.026588714 -0.011252546

transformer.layers.0.self_attn.out_proj.weight f4 [64, 64]
000000 46 fb 6f 3c c4 53 e0 bd c2 a7 09 3e 0d 53 15 3e
       0.014647311 -0.10953477 0.13442901 0.14582463
000010 53 aa 63 bd 2f 70 d9 bd 03 fd 83 3b ae 0e 04 be
       -0.055582356 -0.106171004 0.004027964 -0.12896225
000020 d9 f2 8b 3d f9 d0 95 bd 1f 23 a2 3d 88 22 98 bd
       0.06833429 -0.07315249 0.07916855 -0.07428461
000030 32 05 25 3d 94 79 46 be 6e b8 0a 3e 58 e9 3a bd
       0.040288158 -0.19382316 0.13546917 -0.04563269
000040 70 3c 40 bd e9 e5 08 bc a5 7f 3f 3b 3a 05 81 bd
       -0.046932638 -0.008355596 0.002922037 -0.06299825
000050 db 3a 68 bd d4 30 eb bd f4 d1 b8 ba fd 0d 6f bd
       -0.056696754 -0.114839226 -0.0014100657 -0.05836295
000060 36 11 47 be ed db 73 3d 09 43 cd bd f3 81 f9 bc
       -0.19440159 0.05953591 -0.100225516 -0.030457472
000070 6d bc eb bb f1 08 46 bd d7 4d b4 bd 2f c5 d1 3d
       -0.007194093 -0.04834837 -0.08803909 0.10242688
000080 ae 35 c1 bc 3c 36 92 3d 3c 75 1c be a9 51 3f be
       -0.023585167 0.07139251 -0.15279096 -0.18683495
000090 2e 38 03 3d 2b 8b 9c bc ac 09 c8 bd 37 ca 9f bc
       0.032036 -0.01910933 -0.0976747 -0.019505603
0000a0 f3 53 84 3d 62 bc 80 bc 23 c5 63 bd 39 80 8d 3d
       0.064613245 -0.015714828 -0.055607926 0.06909222
0000b0 f6 7b 9d 3c ac 65 ba 3c 24 ed 3d bd 49 bc 65 bc
       0.019224148 0.022753559 -0.046368733 -0.014021941
0000c0 6e 19 8a 3d 66 1c c6 3d 94 46 aa bd 4d 69 fa 3c
       0.067431316 0.09673385 -0.08314243 0.03056779
0000d0 6d f7 8d bd 7c 50 8e 3d bc 34 fd bb 25 be d5 3c
       -0.06931958 0.06948945 -0.0077272337 0.026091645
0000e0 a5 af 85 3d 82 32 4b 3d 2b 29 70 bd 25 21 b1 3d
       0.06527642 0.049608715 -0.05863301 0.086489
0000f0 ad 8a 42 3d 3d 9e c7 3c d2 79 90 3d 7c e2 7b bd
       0.047495533 0.024367446 0.070544854 -0.06149529
000100 79 ad 82 3d 43 5b ef 3d af e6 e2 bd c2 17 e5 bc
       0.063807435 0.11687329 -0.11079156 -0.02796543
000110 08 56 9b 3d 4a e6 0a 3e 0a ab 38 bc bb a7 3b bc
       0.075847685 0.13564411 -0.011271248 -0.011453564
000120 03 c9 21 3e bf 01 c7 3c 16 36 da 3d bc 69 21 3d
       0.15799336 0.024292825 0.10654847 0.039407477
000130 d0 68 05 bd 03 ad 9e bd a7 48 b8 3d eb 2b 57 3d
       -0.03257066 -0.07747843 0.08998232 0.052532118
000140 07 4b 82 3b 0c 4e 98 bb c6 8d 21 bc 4f 55 20 3b
       0.003976229 -0.004647976 -0.009860462 0.002446491
000150 64 ea 5e 3d 38 7d 9b bc ca 14 81 bd 58 ad b7 bd
       0.05442275 -0.018980607 -0.06302793 -0.089686096
000160 f3 ed 9b 3d fe 14 f5 3d e2 d7 96 3c fb f1 64 3d
       0.076137446 0.119668946 0.018413488 0.055894833
000170 dd 00 61 bd 01 6d db 3b b6 90 57 bd f3 c9 8b 3d
       -0.054932464 0.006696344 -0.05262824 0.06825628
000180 93 fa f7 bc 17 22 0c 3d d0 32 41 bd fd 60 34 3e
       -0.03027085 0.034212198 -0.0471676 0.17615123
000190 82 c3 13 3d c8 50 72 3d b0 be 4e 3c 6a a7 72 bd
       0.036075123 0.05915907 0.012618706 -0.05924169
0001a0 86 fe 6c bb 4f 19 c0 3d 28 be f4 bd ed 89 15 be
       -0.003616245 0.09379827 -0.11950332 -0.14603396
0001b0 15 45 e2 3c ec 5e cb bd 26 e1 ea 3b e8 a6 4d 3d
       0.027620832 -0.09930214 0.007167953 0.050208002
0001c0 5c 37 d6 bd fd 10 a6 3d 72 16 91 3c ba eb ee bc
       -0.10459778 0.08108709 0.017710898 -0.029165138
0001d0 b2 90 22 3d b7 12 dc 3d 45 6c cb 3d da 90 e2 bd
       0.039688773 0.10745757 0.0993276 -0.110627845
0001e0 e4 ff c4 38 4f d5 1e 3d 44 0e c0 bc e9 42 90 3d
       9.393672e-05 0.038777646 -0.023444302 0.07044012
0001f0 3d 10 4b 3d b2 9e 77 bc fc d1 a4 3d 4d c3 5b bc
       0.049576033 -0.0151135195 0.08047864 -0.013413263
000200 b6 43 84 3d c2 cc 0b be 4f b6 f5 bd 84 0c 11 3e
       0.06458227 -0.13652328 -0.11997663 0.1416493
000210 dc b9 c9 3d cd da ac 3c fc 8e 58 be 70 bf 57 bc
       0.09849903 0.021100426 -0.21148294 -0.013168201
000220 f1 1d 13 be 02 1f 23 3c 8a 9d 87 bd ca 63 39 bc
       -0.1436689 0.009956123 -0.06621845 -0.0113152955
000230 ee ae da bd c1 b9 1c 3c 23 ac 9f 3c b7 e2 0c be
       -0.106778964 0.009565772 0.01949126 -0.1375836
000240 d6 85 56 bd fa 5e 87 bc 3f fb 24 bd 64 86 1c be
       -0.05237373 -0.01652478 -0.04027867 -0.15285641
000250 a0 ef 11 3d a8 26 71 39 6d 28 ae bc 8e 30 12 be
       0.035628915 0.00022997952 -0.02125951 -0.14276335
000260 22 c0 d9 3c a9 d9 0a 3d 39 9b a1 bd ba be 83 bd
       0.026580874 0.033898983 -0.078909345 -0.064328626
000270 bb 38 6f 3d 65 c2 0f 3d 95 15 2d be c9 d8 99 3d
       0.05840371 0.0350975 -0.16902764 0.075120516
000280 90 ad 2d bd 83 b7 5b bd a0 89 01 bd 96 46 60 3d
       -0.04240185 -0.053641807 -0.03162539 0.054754816
000290 75 d9 07 bc a4 c2 c7 3d d0 8f 94 bc 93 33 79 3d
       -0.008291592 0.09753922 -0.018134981 0.0608402
0002a0 ea ef 6c 3d f8 ad 5f 3d 3b 67 44 3e d1 0a 19 3e
       0.057845987 0.05460927 0.19180004 0.14945532
0002b0 2a 32 ff bc 10 f6 a4 3c f7 4f ba bd cc 26 02 be
       -0.03115185 0.020136863 -0.09097283 -0.12710112
0002c0 18 fd 1b be 86 7c 48 be 20 cf f5 3d bf 78 e6 bd
       -0.15233266 -0.19578752 0.120023966 -0.11253499
0002d0 94 8a 77 3d e8 a6 a0 3b 95 02 28 3d bc a0 80 bd
       0.060434893 0.0049027093 0.041018087 -0.06280658
0002e0 e8 8c c6 3d 16 17 8d bd 6d 71 ba 3c 03 e2 6e bd
       0.096948445 -0.06889169 0.022759164 -0.05832101
0002f0 56 a6 de bc f6 aa ef bb e2 3f d2 3d fd 60 87 bc
       -0.027178925 -0.0073140813 0.10266091 -0.01652574
000300 f3 b9 31 3e 94 54 07 3b c9 c1 78 bc 95 d7 a9 bd
       0.1735609 0.0020649778 -0.015182921 -0.08293072
000310 40 71 5a bc 37 cb c3 3c ac cb 4d bb 01 38 85 3d
       -0.013332665 0.023900611 -0.0031401915 0.065048225
000320 d7 f7 76 3c 27 3f 8a 3d e8 3a b8 3d 8e e0 8f 3c
       0.015073738 0.067503266 0.089956105 0.01756313
000330 d0 52 7a 3d 68 7c 1e 3c 72 ec 5e 3d 76 bd 35 bd
       0.061114132 0.009673215 0.05442471 -0.044370137
000340 f9 76 8c 3d 60 f4 d6 3c 58 d0 9a 3d 79 9d 75 3d
       0.0685863 0.026239574 0.0755927 0.05996463
000350 cd 92 30 bd bd fd 83 bd ad 4c b1 3d 22 31 d7 bd
       -0.04310875 -0.06444881 0.08657203 -0.10507418
000360 cd b0 a8 3d 09 b2 b3 bc 42 a9 bc 3d 3e c3 14 3d
       0.08236847 -0.02193548 0.09211971 0.03631901
000370 21 93 7b 3d c1 a8 9f 3d 9b 19 f2 3d cb 73 a5 bc
       0.06141961 0.07795859 0.1182129 -0.020196816
000380 97 59 42 3c 80 33 00 3e 9e 1c ea bd 97 16 98 bc
       0.01186218 0.12519646 -0.114312395 -0.01856546
000390 69 5e 09 3d 5a 6d 1b be 30 55 94 3d cd fd bf 3c
       0.033537302 -0.15178433 0.07242811 0.023436451
0003a0 aa bf de bc 7c e2 ff 3c a4 1d 2f be fa 1e 63 bb
       -0.027191002 0.031235926 -0.17101151 -0.0034655915
0003b0 ae 3a 0d bd 37 6f a8 bd 08 ec f3 bc aa 25 5e 3d
       -0.03447979 -0.082243375 -0.029775634 0.054235138
0003c0 20 36 6e bd b7 b8 3a 3d 1e d3 e5 3c 54 ca ab 3d
       -0.058157086 0.045586314 0.02805477 0.083882004
0003d0 fa 1b d3 bd 1d 75 a5 bc 4a 5a 0b be 9c 7d 8e 3d
       -0.103080705 -0.020197446 -0.13608661 0.06957552
0003e0 5a 01 61 bd e3 9a e7 3c 09 50 50 bd 40 ab a3 3c
       -0.05493293 0.028272098 -0.050857577 0.01997912
0003f0 6b 48 70 3d 0f 36 2e 3d 70 6a bc 3d 61 b7 b0 bc
       0.058662813 0.042532023 0.09199989 -0.021571817

transformer.layers.0.self_attn.out_proj.bias f4 [64]
000000 f1 83 33 3d f1 a8 dd bb bb f0 ae bd 13 46 9f 3c
       0.043827 -0.006764524 -0.085420094 0.019442594
000010 75 98 fd bc 30 c0 ae 3d 93 f4 36 bc a0 85 ca 3c
       -0.030956486 0.085327506 -0.0111667095 0.02472192
000020 50 3e 5e bd 93 21 5b 3b 4e d0 38 3d e8 6d 4c bb
       -0.054258645 0.003343676 0.04512053 -0.003119344
000030 13 d6 90 3d ed ab b8 3c d6 fa 50 bd da 0c 41 3c
       0.070720814 0.022542918 -0.051020466 0.011782849
000040 df aa 45 3d 22 97 9e bd e1 d9 63 ba 1a 06 b4 bc
       0.04825866 -0.0774367 -0.0008691829 -0.021975566
000050 5f ca 5e 3c 3e dd 99 3d b1 6e 13 bb 3c 39 c1 3c
       0.013598054 0.07512902 -0.0022496397 0.023586862
000060 79 91 8a 3d e2 33 2e 3c 0b 27 79 ba e7 69 a4 bc
       0.06766028 0.010632487 -0.0009504414 -0.02007003
000070 37 17 c6 3c 2c 54 b0 bd 47 4d 99 bc 76 c9 c3 bc
       0.024180992 -0.086098045 -0.018713607 -0.023899775
000080 34 1a 00 3d 95 7a b4 bc 3f 12 fb ba 77 07 bb 3c
       0.03127499 -0.022031108 -0.0019155218 0.022830708
000090 9d c4 bf 3c c4 14 db 3c a2 38 84 bd f7 dd 2e bd
       0.023409182 0.0267433 -0.06456114 -0.04269215
0000a0 2b 9b 35 bc d9 fb 1b 3d 9d 25 21 bd a1 14 58 3d
       -0.011084358 0.038081978 -0.03934251 0.05275405
0000b0 81 e7 a0 bc 93 cb 79 3b 95 87 01 3b df 18 10 3d
       -0.01964164 0.0038115724 0.001976465 0.03517997
0000c0 22 af 2a 3c 54 e8 fe 3b f5 ee b9 3c 10 dd dc 3c
       0.0104177315 0.0077791605 0.022696951 0.02696088
0000d0 2c 93 e7 bc ad 69 3b 3d 45 76 a3 3c 31 e4 2b bd
       -0.02826842 0.045755077 0.019953856 -0.041965667
0000e0 a0 e4 61 bd 7e 62 fa 3b 69 49 db bd d7 b1 3d bd
       -0.055149674 0.0076411357 -0.10707361 -0.04631218
0000f0 dd aa 41 bd dd 11 a3 3c 0f cd ba bc 13 aa 97 bc
       -0.04728209 0.019905979 -0.022802858 -0.018513715
