model/SpectralTransformer.onnx (onnx, 363145 bytes, 33 tensors)

pos_embed f4 [1, 200, 64]
-0.022678621 -0.41088638 0.20869198 -0.45723888 -0.51985145 0.110576324 0.067263424 -0.42145526
0.4783155 0.026727268 0.25805 -0.23579258 -0.27984104 0.19221129 -0.26308453 0.32800293
-0.19091907 -0.15546368 -0.101962686 -0.07795757 -0.19539718 0.16845225 0.3564223 -0.16331488
-0.12497341 -0.013526305 -0.18916653 0.54456395 -0.031946283 -0.092434086 0.061272323 0.48077828
0.048015837 -0.42038727 0.06794285 0.15600869 0.34794873 -0.5085234 0.38087967 -0.15857045
0.0981474 -0.45862094 0.38329762 -0.13699919 0.293936 -0.15084557 0.33554915 0.10247193
0.054448795 -0.24374573 0.005805915 -0.40404886 0.0055561536 -0.28889817 0.36577114 -0.21666604
0.3733183 0.036102884 0.24228334 0.04609778 -0.08825021 0.33017772 0.47150365 0.31994584
0.080733925 0.006554812 0.017281963 -0.045606777 -0.07684819 0.091237634 -0.009361136 -0.072521515
0.15698321 -0.004237429 -0.10853532 0.027947396 0.07547726 0.17227311 0.07938786 0.03943958
-0.015536741 -0.07950835 0.023058258 -0.040530924 0.028904507 0.21104054 -0.055948548 -0.049901936
0.06628735 0.050226726 -0.0547549 0.051920205 -0.028197583 0.10007842 -0.043991737 -0.08401946
-0.000980597 -0.018297207 -0.06788215 -0.039493416 0.033065747 -0.12493189 -0.1180091 -0.010099885
-0.09579964 0.0006921565 0.012945256 0.011960226 -0.01637098 -0.08446993 -0.050605584 0.10704703
0.09472649 -0.031107202 0.018525213 -0.01777938 0.04814927 -0.0020956544 -0.040798157 0.05109263
-0.040914513 0.023114624 -0.2695412 -0.04961029 0.04978605 -0.03897549 3.8654543e-05 0.15223633
0.0065481267 0.11242997 0.1011406 -0.058683198 -0.07808897 0.12321849 0.05886666 0.03469417
0.14186414 0.007425002 0.025370382 -0.09961576 -0.07816281 -0.0056661973 -0.262685 0.2821106
-0.16095456 -0.2552079 0.21083674 -0.1667993 -0.19638206 0.31284767 0.18796372 -0.11919013
-0.09144346 0.17209508 0.048742436 0.19359252 -0.107555225 0.23668005 0.023837255 0.0029691292
0.0018691571 -0.021612726 -0.31901297 -0.012181681 0.25499812 -0.08340126 0.015922768 -0.14337692
0.22665979 -0.047278576 0.12942284 -0.16724053 0.08259928 -0.023835113 -0.09891615 -0.00017602812
-0.0677315 -0.24678369 0.05166729 -0.39844927 0.18199085 -0.08893653 -0.10149922 -0.017853508
-0.01982436 0.13383943 0.19073956 0.07548283 0.12840316 0.00060321554 0.09053927 0.12583059
-0.0104469815 0.14736211 0.080549665 -0.036856733 -0.02608755 0.31249192 0.14716026 0.1236769
0.101372145 0.14486302 0.38705525 -0.10728765 0.0032067408 -0.11178024 -0.2871755 0.3324454
-0.09716766 -0.42224932 0.14277944 -0.15246935 -0.07331792 0.48565832 0.06903235 -0.08659269
-0.0544174 0.2062613 0.03778871 0.098201014 -0.094457574 0.11310787 -0.008125185 -0.050053246
0.10247548 -0.033625923 -0.20783599 0.029186554 0.29294485 0.059254102 0.0018802809 -0.21104103
0.30737135 0.04577568 0.053324528 -0.17124623 0.032011937 0.026766239 -0.190137 -0.2556422
-0.29432833 -0.45237118 -0.2803037 -0.34611565 0.31309405 -0.02910578 -0.18412118 0.01958999
-0.08133488 0.094801396 0.1894652 0.15861344 0.20818833 -0.0016952932 0.0177231 0.10948267
00000000: 84c8 b9bc b35f d2be 5ab3 553e 371b eabe
00000010: fc14 05bf d775 e23d 68c1 893d fcc8 d7be
00000020: c5e5 f43e 25f3 da3c 211f 843e 9c73 71be
00000030: 5347 8fbe 09d3 443e 04b3 86be 00f0 a73e
00000040: 4a80 43be df31 1fbe d0d1 d0bd 38a8 9fbd
00000050: 3316 48be bf7e 2c3e fc7c b63e 043c 27be
00000060: 0ff2 ffbd 6f9d 5dbc dfb4 41be 8b68 0b3f
00000070: 1bda 02bd 154e bdbd b0f8 7a3d 9228 f63e
00000080: 41ac 443d 003d d7be 9f25 8b3d bec0 1f3e
00000090: 5626 b23e 972e 02bf a902 c33e 4b60 22be
000000a0: 8101 c93d 5dd0 eabe 963f c43e 8449 0cbe
000000b0: c87e 963e 4377 1abe 19cd ab3e cedc d13d
000000c0: b305 5f3d 7b98 79be 8c3f be3b 7edf cebe
000000d0: 6510 b63b 76ea 93be 5b46 bb3e b4dd 5dbe
000000e0: 9423 bf3e 9ee0 133d 2019 783e 07d1 3c3d
000000f0: 87bc b4bd 0e0d a93e ed68 f13e f1cf a33e
00000100: d457 a53d c0c9 d63b e792 8d3c 2cce 3abd
00000110: 9562 9dbd ccda ba3d 735f 19bc 2986 94bd
00000120: 35c0 203e 21da 8abb c447 debd f0f1 e43c
00000130: d293 9a3d 5d68 303e 1a96 a23d 668b 213d
00000140: d18d 7ebc 46d5 a2bd ace4 bc3c c103 26bd
00000150: 25c9 ec3c 031b 583e 4e2a 65bd f965 4cbd
00000160: aac1 873d 8aba 4d3d ad46 60bd 48aa 543d
00000170: 9efe e6bc eaf5 cc3d ae30 34bd 6512 acbd
00000180: 6087 80ba 06e4 95bc cc05 8bbd d9c3 21bd
00000190: f36f 073d 4adc ffbd c1ae f1bd fd79 25bc
000001a0: 9a32 c4bd d671 353a 5718 543c d3f4 433c
000001b0: 6f1c 86bc 92fe acbd cd47 4fbd 793b db3d
000001c0: f6ff c13d 88d4 febc 30c2 973c 10a6 91bc
000001d0: 2b38 453d 3f57 09bb f81b 27bd 8146 513d
000001e0: fa95 27bd e15a bd3c 4e01 8abe 2934 4bbd
000001f0: 75ec 4b3d c3a4 1fbd 0021 2238 d7e3 1b3e
00000200: ab91 d63b af41 e63d ce22 cf3d cb5d 70bd
00000210: 1ced 9fbd fa59 fc3d 2b1e 713d 791b 0e3d
00000220: d544 113e 6e4d f33b 8cd5 cf3c 5903 ccbd
00000230: d313 a0bd 82ab b9bb a67e 86be cd70 903e
00000240: 46d1 24be 9caa 82be 96e5 573e 70cd 2abe
00000250: 6118 49be 922d a03e 9079 403e f419 f4bd
00000260: b546 bbbd b139 303e 26a6 473d 1e3d 463e
00000270: ea45 dcbd 415c 723e 5946 c33c b995 423b
00000280: 81fe f43a 2c0d b1bc ab55 a3be ac95 47bc
00000290: 1d8f 823e 48ce aabd 7770 823c 66d1 12be
000002a0: 8119 683e 2ea7 41bd 6c87 043e 1a41 2bbe
000002b0: d029 a93d db41 c3bc 8d94 cabd 3094 38b9
000002c0: d0b6 8abd ddb4 7cbe 15a1 533d 8b01 ccbe
000002d0: cf5b 3a3e 5b24 b6bd d3de cfbd 8541 92bc
000002e0: b266 a2bc 340d 093e 3b51 433e be96 9a3d
000002f0: 1e7c 033e 1c21 1e3a a76c b93d bcd9 003e
00000300: d129 2bbc 18e6 163e 39f7 a43d 16f7 16bd
00000310: 8fb5 d5bc f1fe 9f3e 2eb1 163e 514a fd3d
00000320: 339c cf3d f956 143e 1b2c c63e a1b9 dbbd
00000330: 2f28 523b 0aed e4bd ab08 93be 4936 aa3e
00000340: d7ff c6bd 1031 d8be c634 123e ed20 1cbe
00000350: b527 96bd 35a8 f83e d560 8d3d 8257 b1bd
00000360: c8e4 5ebd 2a36 533e 56c8 1a3d 9d1d c93d
00000370: f972 c1bd 19a5 e73d 7f1f 05bc a204 4dbd
00000380: aade d13d 56bb 09bd f5d2 54be a418 ef3c
00000390: defc 953e 6eb4 723d c273 f63a 241b 58be
000003a0: c75f 9d3e 487f 3b3d d26a 5a3d 2c5b 2fbe
000003b0: f31e 033d df44 db3c 46b3 42be 89e3 82be
000003c0: 34b2 96be 329d e7be f783 8fbe 1236 b1be
000003d0: dd4d a03e 3f6f eebc 438a 3cbe 307b a03c
000003e0: e792 a6bd 3c27 c23d 2a03 423e 906b 223e
000003f0: 522f 553e 9a34 deba 0930 913c 7338 e03d

band_min f4 [200]
2560.0 2723.0 3750.0 3601.0 3916.0 4123.0 4139.0 4005.0
3883.0 3640.0 2797.0 2712.0 2650.0 2740.0 2762.0 2714.0
2637.0 2560.0 2560.0 2560.0 2561.0 2560.0 2560.0 2500.0
2445.0 2356.0 2258.0 2227.0 2179.0 2080.0 2318.0 2064.0
2260.0 2471.0 2407.0 2400.0 2588.0 2732.0 2771.0 2127.0
2821.0 2878.0 2798.0 2781.0 2602.0 2461.0 2577.0 2688.0
2668.0 2623.0 2653.0 2667.0 2600.0 2282.0 2187.0 2184.0
2036.0 1506.0 1571.0 1617.0 1900.0 2071.0 2240.0 2326.0
2280.0 2285.0 2288.0 2263.0 2216.0 2205.0 2150.0 2077.0
2090.0 1995.0 1813.0 1632.0 1268.0 1182.0 1290.0 1243.0
1390.0 1536.0 1569.0 1568.0 1569.0 1499.0 1512.0 1532.0
1548.0 1558.0 1507.0 1430.0 1452.0 1479.0 1385.0 1456.0
1449.0 1437.0 1340.0 1300.0 1214.0 1142.0 1039.0 1002.0
1015.0 1019.0 1024.0 1051.0 1057.0 1058.0 1070.0 1118.0
1158.0 1188.0 1226.0 1226.0 1235.0 1243.0 1242.0 1231.0
1224.0 1242.0 1226.0 1230.0 1251.0 1251.0 1243.0 1233.0
1224.0 1232.0 1208.0 1206.0 1199.0 1184.0 1174.0 1160.0
1140.0 1133.0 1121.0 1100.0 1070.0 1050.0 1024.0 1007.0
987.0 989.0 997.0 1011.0 1020.0 1012.0 995.0 1000.0
1018.0 1036.0 1034.0 1021.0 1030.0 1034.0 1034.0 1046.0
1048.0 1051.0 1046.0 1047.0 1050.0 1046.0 1033.0 1036.0
1043.0 1046.0 1038.0 1047.0 1043.0 1041.0 1039.0 1036.0
1029.0 1028.0 1032.0 1017.0 1028.0 1021.0 1022.0 1021.0
1015.0 1012.0 1012.0 1007.0 1004.0 1001.0 1003.0 1001.0
1000.0 999.0 995.0 995.0 992.0 990.0 986.0 985.0
00000000: 0000 2045 0030 2a45 0060 6a45 0010 6145
00000010: 00c0 7445 00d8 8045 0058 8145 0050 7a45
00000020: 00b0 7245 0080 6345 00d0 2e45 0080 2945
00000030: 00a0 2545 0040 2b45 00a0 2c45 00a0 2945
00000040: 00d0 2445 0000 2045 0000 2045 0000 2045
00000050: 0010 2045 0000 2045 0000 2045 0040 1c45
00000060: 00d0 1845 0040 1345 0020 0d45 0030 0b45
00000070: 0030 0845 0000 0245 00e0 1045 0000 0145
00000080: 0040 0d45 0070 1a45 0070 1645 0000 1645
00000090: 00c0 2145 00c0 2a45 0030 2d45 00f0 0445
000000a0: 0050 3045 00e0 3345 00e0 2e45 00d0 2d45
000000b0: 00a0 2245 00d0 1945 0010 2145 0000 2845
000000c0: 00c0 2645 00f0 2345 00d0 2545 00b0 2645
000000d0: 0080 2245 00a0 0e45 00b0 0845 0080 0845
000000e0: 0080 fe44 0040 bc44 0060 c444 0020 ca44
000000f0: 0080 ed44 0070 0145 0000 0c45 0060 1145
00000100: 0080 0e45 00d0 0e45 0000 0f45 0070 0d45
00000110: 0080 0a45 00d0 0945 0060 0645 00d0 0145
00000120: 00a0 0245 0060 f944 00a0 e244 0000 cc44
00000130: 0080 9e44 00c0 9344 0040 a144 0060 9b44
00000140: 00c0 ad44 0000 c044 0020 c444 0000 c444
00000150: 0020 c444 0060 bb44 0000 bd44 0080 bf44
00000160: 0080 c144 00c0 c244 0060 bc44 00c0 b244
00000170: 0080 b544 00e0 b844 0020 ad44 0000 b644
00000180: 0020 b544 00a0 b344 0080 a744 0080 a244
00000190: 00c0 9744 00c0 8e44 00e0 8144 0080 7a44
000001a0: 00c0 7d44 00c0 7e44 0000 8044 0060 8344
000001b0: 0020 8444 0040 8444 00c0 8544 00c0 8b44
000001c0: 00c0 9044 0080 9444 0040 9944 0040 9944
000001d0: 0060 9a44 0060 9b44 0040 9b44 00e0 9944
000001e0: 0000 9944 0040 9b44 0040 9944 00c0 9944
000001f0: 0060 9c44 0060 9c44 0060 9b44 0020 9a44
00000200: 0000 9944 0000 9a44 0000 9744 00c0 9644
00000210: 00e0 9544 0000 9444 00c0 9244 0000 9144
00000220: 0080 8e44 00a0 8d44 0020 8c44 0080 8944
00000230: 00c0 8544 0040 8344 0000 8044 00c0 7b44
00000240: 00c0 7644 0040 7744 0040 7944 00c0 7c44
00000250: 0000 7f44 0000 7d44 00c0 7844 0000 7a44
00000260: 0080 7e44 0080 8144 0040 8144 0040 7f44
00000270: 00c0 8044 0040 8144 0040 8144 00c0 8244
00000280: 0000 8344 0060 8344 00c0 8244 00e0 8244
00000290: 0040 8344 00c0 8244 0020 8144 0080 8144
000002a0: 0060 8244 00c0 8244 00c0 8144 00e0 8244
000002b0: 0060 8244 0020 8244 00e0 8144 0080 8144
000002c0: 00a0 8044 0080 8044 0000 8144 0040 7e44
000002d0: 0080 8044 0040 7f44 0080 7f44 0040 7f44
000002e0: 00c0 7d44 0000 7d44 0000 7d44 00c0 7b44
000002f0: 0000 7b44 0040 7a44 00c0 7a44 0040 7a44
00000300: 0000 7a44 00c0 7944 00c0 7844 00c0 7844
00000310: 0000 7844 0080 7744 0080 7644 0040 7644

value_embed.bias f4 [64]
0.075790785 -0.41408622 0.57013375 -0.35818577 0.3075687 -0.84886634 -0.5678753 -0.6490401
0.69610465 0.64356244 -0.5652947 0.8196513 -0.728432 -0.100406386 0.8789464 -0.5214844
-0.092443295 0.8355166 -0.59629756 0.7758006 0.3105969 -0.5519888 -0.044702064 0.322759
-0.21906176 -0.38551703 0.37474868 0.063540064 0.14565806 0.3134767 0.7294629 0.5630513
-0.7611668 0.52016157 0.79730237 -0.28978425 -0.36479086 -0.6516854 -0.11273194 0.90812755
0.52877504 -0.11375682 0.29126856 -0.24402528 -0.104441725 0.1814091 0.44449398 0.09031683
-0.11829222 0.11175745 0.31245607 0.1314156 -0.31703594 -0.7335935 0.11616954 0.7280865
-0.0011208479 -0.53811187 0.25786588 0.7655833 -0.055215552 -0.41457152 0.70217997 0.57673526
00000000: 3338 9b3d 1c03 d4be 49f4 113f 2064 b7be
00000010: a579 9d3e 4e4f 59bf 4760 11bf 7e27 26bf
00000020: ea33 323f 82c0 243f 27b7 10bf abd4 513f
00000030: 857a 3abf dda1 cdbd a202 613f 0080 05bf
00000040: e952 bdbd 6ae4 553f f5a6 18bf de9a 463f
00000050: 8f06 9f3e 234f 0dbf 8319 37bd ab40 a53e
00000060: ba51 60be 7d62 c5be 0fdf bf3e 4b21 823d
00000070: 6327 153e 0580 a03e 15be 3a3f 2124 103f
00000080: d4db 42bf 4f29 053f 021c 4c3f 9a5e 94be
00000090: dec5 babe dbd4 26bf 01e0 e6bd 0c7b 683f
000000a0: cd5d 073f 56f9 e8bd 2721 953e c3e1 79be
000000b0: 8be5 d5bd 4fc3 393e b794 e33e 08f8 b83d
000000c0: 3143 f2bd 17e1 e43d 3efa 9f3e d091 063e
000000d0: 8952 a2be c9cc 3bbf 4cea ed3d e063 3a3f
000000e0: 6ae9 92ba b3c1 09bf ff06 843e 44fd 433f
000000f0: b429 62bd b842 d4be 11c2 333f eca4 133f

input_norm.weight f4 [64]
1.0243644 1.1245127 0.921071 0.9933033 1.0239781 0.90237826 1.1586401 0.9262926
0.8672944 1.1319392 0.95656055 1.0183014 0.81627446 0.9877598 0.9461053 1.0290387
0.9600679 0.91371197 1.1297561 1.0897106 1.1981287 0.9351918 1.1422598 1.1302525
0.98352987 1.1240311 1.1181762 1.2465513 1.0826248 0.87589896 0.89136595 0.95727146
0.9669653 1.0758858 1.1651945 1.0544707 0.990382 0.95811445 1.0827897 0.98915076
0.9837018 0.997729 1.0137384 1.0112747 1.0135659 1.0567251 1.0888298 1.0865521
1.072559 1.2169479 1.0918963 1.199116 1.0869651 0.8995921 1.0275561 1.0246607
1.1058456 1.1195117 0.956498 0.9436393 1.060533 1.0591471 0.93951535 0.9240743
00000000: 5f1e 833f 08f0 8f3f 4fcb 6b3f 2049 7e3f
00000010: b711 833f 4302 673f 524e 943f 8321 6d3f
00000020: 0107 5e3f 62e3 903f 27e1 743f b357 823f
00000030: 5df7 503f d4dd 7c3f f533 723f 8ab7 833f
00000040: 03c7 753f 07e9 693f d99b 903f a37b 8b3f
00000050: 485c 993f bb68 6f3f 9235 923f 1dac 903f
00000060: 9dc8 7b3f 40e0 8f3f 6620 8f3f fe8e 9f3f
00000070: 7393 8a3f ea3a 603f 8f30 643f be0f 753f
00000080: 0a8b 773f a0b6 893f 1825 953f e5f8 863f
00000090: ad89 7d3f fd46 753f da98 8a3f fc38 7d3f
000000a0: e2d3 7b3f 2b6b 7f3f 2ec2 813f 7371 813f
000000b0: 87bc 813f c542 873f c65e 8b3f 2414 8b3f
000000c0: 9d49 893f f3c4 9b3f 42c3 8b3f a27c 993f
000000d0: ac21 8b3f ab4b 663f f586 833f 1528 833f
000000e0: 598c 8d3f 294c 8f3f 0edd 743f 5892 713f
000000f0: 8cbf 873f 2292 873f 1484 703f 2290 6c3f

input_norm.bias f4 [64]
0.05335722 0.039050255 -0.13589291 0.058239236 -0.09023496 0.14054787 0.055640474 0.107235216
-0.18914865 -0.07008535 0.10561533 -0.12635666 0.2133883 0.10435095 -0.12799498 0.08924934
0.07558561 -0.19775179 0.030494152 -0.020100659 0.024472956 0.097134665 -0.037055217 0.030729655
0.098954685 -0.020513415 0.029141704 -0.080196194 0.07285345 -0.19084021 -0.1499128 -0.0784495
0.14074975 -0.08007567 0.013130861 0.016001208 0.10451288 0.076548405 0.026160529 -0.07238894
-0.09176618 0.08461209 -0.054811858 0.104793474 0.025265057 0.022435147 -0.0032011308 0.0433379
0.11896899 -0.014250768 -0.066914976 -0.0038619367 0.033400994 0.18486336 -0.07403495 -0.14578395
-0.07477604 0.0054395627 -0.13377927 -0.09574726 -0.04497663 0.07996639 -0.11049668 -0.11815222
00000000: 1a8d 5a3d 29f3 1f3d 8327 0bbe 448c 6e3d
00000010: 1bcd b8bd c8eb 0f3e 44e7 633d 239e db3d
00000020: 2fb0 41be e888 8fbd da4c d83d a463 01be
00000030: 7682 5a3e f3b5 d53d 1e11 03be 5cc8 b63d
00000040: a1cc 9a3d 727f 4abe dfce f93c 23aa a4bc
00000050: 827b c83c 8aee c63d 36c7 17bd c2bc fb3c
00000060: c1a8 ca3d c00b a8bc 95ba ee3c e73d a4bd
00000070: 3134 953d 9e6b 43be be82 19be 22aa a0bd
00000080: b420 103e b6fe a3bd d322 573c f714 833c
00000090: d90a d63d 69c5 9c3d 9b4e d63c a740 94bd
000000a0: e8ef bbbd 1a49 ad3d 6682 60bd f69d d63d
000000b0: aaf8 ce3c eac9 b73c 10ca 51bb 1583 313d
000000c0: 04a6 f33d 0e7c 69bc b80a 89bd 8c18 7dbb
000000d0: 7bcf 083d d24c 3d3e a39f 97bd 6348 15be
000000e0: 2e24 99bd 5c3e b23b 6ffd 08be 2417 c4bd
000000f0: 6a39 38bd 6bc5 a33d 154c e2bd cbf9 f1bd

transformer.layers.0.self_attn.in_proj_bias f4 [192]
-0.033725046 -0.09446253 -0.087483674 0.015203553 0.1457975 0.04628549 -0.038175225 0.07234492
-0.05699476 -0.07411377 -0.08644933 -0.09620819 0.11040426 0.14769387 0.07900175 0.14845839
0.08846404 -0.15100382 -0.13716719 0.15053338 -0.092777565 0.12053659 -0.13898742 0.10632123
-0.0317504 0.060826384 -0.08543383 -0.053270973 0.07096176 0.012299542 -0.04541444 -0.036722604
0.06290133 -0.11970446 -0.13444912 0.14625038 0.10372533 -0.12938529 -0.19716053 0.05829707
0.0484392 0.1333116 -0.013508098 3.3849974e-05 0.05336684 -0.13735814 -0.015875205 0.085562214
-0.090891734 -0.026544359 0.09950687 -0.053310476 -0.061399724 0.036081918 -0.08710777 -0.014567618
-0.13534336 0.12939337 0.192368 -0.13413784 0.106000185 0.16791795 -0.19205305 0.14160284
-0.013899516 -0.04987909 -0.103000276 0.0029336584 0.10525802 0.035823546 -0.014107168 0.044722315
0.035795216 0.018418793 0.06377332 0.022517333 -0.032225564 -0.09954822 -0.06825587 -0.024449771
0.07449959 -0.08619228 -0.088160686 0.07242889 -0.06874977 0.09404035 -0.07839022 0.059785604
0.011192431 -0.02256396 0.038994238 0.04377518 -0.008776183 0.005507822 0.03384987 0.035191666
0.031476036 -0.017458938 -0.029669287 0.041688923 0.039275825 -0.035096172 -0.053577427 0.032306068
-0.025888398 -0.15042807 0.09045842 -0.05095364 -0.09830061 0.027370574 0.102273494 -0.07357491
-0.022202296 -0.0026133782 0.0037719822 -0.002608565 -0.018592607 0.008073231 -0.027022276 0.010346819
0.0007156464 0.008093122 -0.0022349937 -0.0107522635 0.009362568 0.0061714635 -0.0071904147 0.015181453
-0.012295862 -0.014997061 -0.00846183 -0.007807097 0.0086297905 -0.0025180173 -0.005457746 -0.0056986115
0.0010424983 -1.2706529e-05 -0.018638536 -0.0121795 0.0024117471 -0.0069874986 0.00025281985 -0.011817053
-0.021536527 -0.017957041 -0.011027931 -0.01615793 -0.017353121 -0.0031937717 0.00067143404 0.028645473
0.012180103 0.012001179 -0.0069622975 -0.004855766 -0.010192024 -0.027890857 -0.0133192865 -0.006750741
-0.0032344752 0.019384287 0.024394345 -0.007863189 0.019492893 0.024939496 -0.014733686 -0.037037097
0.0134133585 -0.0028216671 -0.0066393013 -0.003638763 0.030295672 -0.0065096775 -0.018512681 -0.0006011938
0.011561363 -0.0034345584 0.005967973 0.015190674 -0.02615925 0.005188233 0.0032792417 -0.004980371
-0.021777263 -0.005833644 0.005631368 0.0050724805 0.019860309 -0.010095137 -0.026588714 -0.011252546
00000000: 4623 0abd 9275 c1bd a42a b3bd 5318 793c
00000010: f14b 153e db95 3d3d a05d 1cbd 9329 943d
00000020: 5673 69bd f6c8 97bd 590c b1bd cd08 c5bd
00000030: a11b e23d 103d 173e abcb a13d 7a05 183e
00000040: a22c b53d bfa0 1abe 8e75 0cbe 6c25 1a3e
00000050: 2a02 bebd e3db f63d b852 0ebe f2be d93d
00000060: b50c 02bd 1625 793d eff7 aebd aa32 5abd
00000070: 6654 913d 0584 493c 7e04 3abd 716a 16bd
00000080: 6ad2 803d 9d27 f5bd 08ad 09be a9c2 153e
00000090: f26d d43d 947d 04be 73e4 49be e9c8 6e3d
000000a0: 2f68 463d d682 083e 1251 5dbc 22fa 0d38
000000b0: 3097 5a3d 9da7 0cbe b80c 82bc 3e3b af3d
000000c0: 7225 babd 8e73 d9bc 42ca cb3d 165c 5abd
000000d0: 477e 7bbd a2ca 133d 8f65 b2bd 05ad 6ebc
000000e0: 7397 0abe b27f 043e 1efc 443e 6e5b 09be
000000f0: a016 d93d aff2 2b3e 8ea9 44be 5600 113e
00000100: ccba 63bc 044e 4cbd cff1 d2bd 9f42 403b
00000110: 8491 d73d b6bb 123d c021 67bc bf2e 373d
00000120: 019e 123d 02e3 963c 969b 823d 4576 b83c
00000130: f4fe 03bd f0df cbbd bcc9 8bbd e34a c8bc
00000140: 3e93 983d 9485 b0bd 978d b4bd 9955 943d
00000150: aecc 8cbd 3a98 c03d 0d8b a0bd c0e1 743d
00000160: 7560 373c 0ed8 b8bc 6cb8 1f3d 9a4d 333d
00000170: fbc9 0fbc f67a b43b 29a6 0a3d 2325 103d
00000180: 04ed 003d 0c06 8fbc 010d f3bc 01c2 2a3d
00000190: b0df 203d 01c1 0fbd 0174 5bbd 5e53 043d
000001a0: e813 d4bc d109 1abe 4442 b93d c4b4 50bd
000001b0: d551 c9bd 4138 e03c c474 d13d 71ae 96bd
000001c0: 97e1 b5bc 3645 2bbb 5c33 773b 75f4 2abb
000001d0: 864f 98bc 9645 043c d25d ddbc b485 293c
000001e0: 389a 3b3a 0499 043c f978 12bb 432a 30bc
000001f0: 7565 193c fd39 ca3b 929d ebbb a1bb 783c
00000200: 9574 49bc 3cb6 75bc 7da3 0abc add2 ffbb
00000210: f763 0d3c 5205 25bb e4d6 b2bb 6bbb babb
00000220: 70a4 883a 202e 55b7 d8af 98bc 878c 47bc
00000230: 670e 1e3b 63f7 e4bb e88c 8439 509c 41bc
00000240: 5f6d b0bc a51a 93bc 7fae 34bc a35d 84bc
00000250: 2228 8ebc 994e 51bb 2d03 303a e9a9 ea3c
00000260: 0e8f 473c 98a0 443c fc23 e4bb 1e1d 9fbb
00000270: 72fc 26bc 5e7b e4bc 2339 5abc 5235 ddbb
00000280: 7df9 53bb cccb 9e3c a6d6 c73c 9bd4 00bc
00000290: 8faf 9f3c ea4d cc3c 8f65 71bc 36b4 17bd
000002a0: b4c3 5b3c b8eb 38bb 7f8e d9bb 5078 6ebb
000002b0: a12e f83c 224f d5bb e8a7 97bc 6f99 1dba
000002c0: df6b 3d3c 5416 61bb fc8e c33b 4ee2 783c
000002d0: ec4b d6bc 0e02 aa3b 8ce8 563b 6132 a3bb
000002e0: 3b66 b2bc 2728 bfbb 5787 b83b 0d37 a63b
000002f0: 16b2 a23c 1366 25bc 93d0 d9bc 995c 38bc

transformer.layers.0.self_attn.out_proj.weight f4 [64, 64]
0.014647311 -0.10953477 0.13442901 0.14582463 -0.055582356 -0.106171004 0.004027964 -0.12896225
0.06833429 -0.07315249 0.07916855 -0.07428461 0.040288158 -0.19382316 0.13546917 -0.04563269
-0.046932638 -0.008355596 0.002922037 -0.06299825 -0.056696754 -0.114839226 -0.0014100657 -0.05836295
-0.19440159 0.05953591 -0.100225516 -0.030457472 -0.007194093 -0.04834837 -0.08803909 0.10242688
-0.023585167 0.07139251 -0.15279096 -0.18683495 0.032036 -0.01910933 -0.0976747 -0.019505603
0.064613245 -0.015714828 -0.055607926 0.06909222 0.019224148 0.022753559 -0.046368733 -0.014021941
0.067431316 0.09673385 -0.08314243 0.03056779 -0.06931958 0.06948945 -0.0077272337 0.026091645
0.06527642 0.049608715 -0.05863301 0.086489 0.047495533 0.024367446 0.070544854 -0.06149529
0.063807435 0.11687329 -0.11079156 -0.02796543 0.075847685 0.13564411 -0.011271248 -0.011453564
0.15799336 0.024292825 0.10654847 0.039407477 -0.03257066 -0.07747843 0.08998232 0.052532118
0.003976229 -0.004647976 -0.009860462 0.002446491 0.05442275 -0.018980607 -0.06302793 -0.089686096
0.076137446 0.119668946 0.018413488 0.055894833 -0.054932464 0.006696344 -0.05262824 0.06825628
-0.03027085 0.034212198 -0.0471676 0.17615123 0.036075123 0.05915907 0.012618706 -0.05924169
-0.003616245 0.09379827 -0.11950332 -0.14603396 0.027620832 -0.09930214 0.007167953 0.050208002
-0.10459778 0.08108709 0.017710898 -0.029165138 0.039688773 0.10745757 0.0993276 -0.110627845
9.393672e-05 0.038777646 -0.023444302 0.07044012 0.049576033 -0.0151135195 0.08047864 -0.013413263
0.06458227 -0.13652328 -0.11997663 0.1416493 0.09849903 0.021100426 -0.21148294 -0.013168201
-0.1436689 0.009956123 -0.06621845 -0.0113152955 -0.106778964 0.009565772 0.01949126 -0.1375836
-0.05237373 -0.01652478 -0.04027867 -0.15285641 0.035628915 0.00022997952 -0.02125951 -0.14276335
0.026580874 0.033898983 -0.078909345 -0.064328626 0.05840371 0.0350975 -0.16902764 0.075120516
-0.04240185 -0.053641807 -0.03162539 0.054754816 -0.008291592 0.09753922 -0.018134981 0.0608402
0.057845987 0.05460927 0.19180004 0.14945532 -0.03115185 0.020136863 -0.09097283 -0.12710112
-0.15233266 -0.19578752 0.120023966 -0.11253499 0.060434893 0.0049027093 0.041018087 -0.06280658
0.096948445 -0.06889169 0.022759164 -0.05832101 -0.027178925 -0.0073140813 0.10266091 -0.01652574
0.1735609 0.0020649778 -0.015182921 -0.08293072 -0.013332665 0.023900611 -0.0031401915 0.065048225
0.015073738 0.067503266 0.089956105 0.01756313 0.061114132 0.009673215 0.05442471 -0.044370137
0.0685863 0.026239574 0.0755927 0.05996463 -0.04310875 -0.06444881 0.08657203 -0.10507418
0.08236847 -0.02193548 0.09211971 0.03631901 0.06141961 0.07795859 0.1182129 -0.020196816
0.01186218 0.12519646 -0.114312395 -0.01856546 0.033537302 -0.15178433 0.07242811 0.023436451
-0.027191002 0.031235926 -0.17101151 -0.0034655915 -0.03447979 -0.082243375 -0.029775634 0.054235138
-0.058157086 0.045586314 0.02805477 0.083882004 -0.103080705 -0.020197446 -0.13608661 0.06957552
-0.05493293 0.028272098 -0.050857577 0.01997912 0.058662813 0.042532023 0.09199989 -0.021571817
00000000: 46fb 6f3c c453 e0bd c2a7 093e 0d53 153e
00000010: 53aa 63bd 2f70 d9bd 03fd 833b ae0e 04be
00000020: d9f2 8b3d f9d0 95bd 1f23 a23d 8822 98bd
00000030: 3205 253d 9479 46be 6eb8 0a3e 58e9 3abd
00000040: 703c 40bd e9e5 08bc a57f 3f3b 3a05 81bd
00000050: db3a 68bd d430 ebbd f4d1 b8ba fd0d 6fbd
00000060: 3611 47be eddb 733d 0943 cdbd f381 f9bc
00000070: 6dbc ebbb f108 46bd d74d b4bd 2fc5 d13d
00000080: ae35 c1bc 3c36 923d 3c75 1cbe a951 3fbe
00000090: 2e38 033d 2b8b 9cbc ac09 c8bd 37ca 9fbc
000000a0: f353 843d 62bc 80bc 23c5 63bd 3980 8d3d
000000b0: f67b 9d3c ac65 ba3c 24ed 3dbd 49bc 65bc
000000c0: 6e19 8a3d 661c c63d 9446 aabd 4d69 fa3c
000000d0: 6df7 8dbd 7c50 8e3d bc34 fdbb 25be d53c
000000e0: a5af 853d 8232 4b3d 2b29 70bd 2521 b13d
000000f0: ad8a 423d 3d9e c73c d279 903d 7ce2 7bbd
00000100: 79ad 823d 435b ef3d afe6 e2bd c217 e5bc
00000110: 0856 9b3d 4ae6 0a3e 0aab 38bc bba7 3bbc
00000120: 03c9 213e bf01 c73c 1636 da3d bc69 213d
00000130: d068 05bd 03ad 9ebd a748 b83d eb2b 573d
00000140: 074b 823b 0c4e 98bb c68d 21bc 4f55 203b
00000150: 64ea 5e3d 387d 9bbc ca14 81bd 58ad b7bd
00000160: f3ed 9b3d fe14 f53d e2d7 963c fbf1 643d
00000170: dd00 61bd 016d db3b b690 57bd f3c9 8b3d
00000180: 93fa f7bc 1722 0c3d d032 41bd fd60 343e
00000190: 82c3 133d c850 723d b0be 4e3c 6aa7 72bd
000001a0: 86fe 6cbb 4f19 c03d 28be f4bd ed89 15be
000001b0: 1545 e23c ec5e cbbd 26e1 ea3b e8a6 4d3d
000001c0: 5c37 d6bd fd10 a63d 7216 913c baeb eebc
000001d0: b290 223d b712 dc3d 456c cb3d da90 e2bd
000001e0: e4ff c438 4fd5 1e3d 440e c0bc e942 903d
000001f0: 3d10 4b3d b29e 77bc fcd1 a43d 4dc3 5bbc
00000200: b643 843d c2cc 0bbe 4fb6 f5bd 840c 113e
00000210: dcb9 c93d cdda ac3c fc8e 58be 70bf 57bc
00000220: f11d 13be 021f 233c 8a9d 87bd ca63 39bc
00000230: eeae dabd c1b9 1c3c 23ac 9f3c b7e2 0cbe
00000240: d685 56bd fa5e 87bc 3ffb 24bd 6486 1cbe
00000250: a0ef 113d a826 7139 6d28 aebc 8e30 12be
00000260: 22c0 d93c a9d9 0a3d 399b a1bd babe 83bd
00000270: bb38 6f3d 65c2 0f3d 9515 2dbe c9d8 993d
00000280: 90ad 2dbd 83b7 5bbd a089 01bd 9646 603d
00000290: 75d9 07bc a4c2 c73d d08f 94bc 9333 793d
000002a0: eaef 6c3d f8ad 5f3d 3b67 443e d10a 193e
000002b0: 2a32 ffbc 10f6 a43c f74f babd cc26 02be
000002c0: 18fd 1bbe 867c 48be 20cf f53d bf78 e6bd
000002d0: 948a 773d e8a6 a03b 9502 283d bca0 80bd
000002e0: e88c c63d 1617 8dbd 6d71 ba3c 03e2 6ebd
000002f0: 56a6 debc f6aa efbb e23f d23d fd60 87bc
00000300: f3b9 313e 9454 073b c9c1 78bc 95d7 a9bd
00000310: 4071 5abc 37cb c33c accb 4dbb 0138 853d
00000320: d7f7 763c 273f 8a3d e83a b83d 8ee0 8f3c
00000330: d052 7a3d 687c 1e3c 72ec 5e3d 76bd 35bd
00000340: f976 8c3d 60f4 d63c 58d0 9a3d 799d 753d
00000350: cd92 30bd bdfd 83bd ad4c b13d 2231 d7bd
00000360: cdb0 a83d 09b2 b3bc 42a9 bc3d 3ec3 143d
00000370: 2193 7b3d c1a8 9f3d 9b19 f23d cb73 a5bc
00000380: 9759 423c 8033 003e 9e1c eabd 9716 98bc
00000390: 695e 093d 5a6d 1bbe 3055 943d cdfd bf3c
000003a0: aabf debc 7ce2 ff3c a41d 2fbe fa1e 63bb
000003b0: ae3a 0dbd 376f a8bd 08ec f3bc aa25 5e3d
000003c0: 2036 6ebd b7b8 3a3d 1ed3 e53c 54ca ab3d
000003d0: fa1b d3bd 1d75 a5bc 4a5a 0bbe 9c7d 8e3d
000003e0: 5a01 61bd e39a e73c 0950 50bd 40ab a33c
000003f0: 6b48 703d 0f36 2e3d 706a bc3d 61b7 b0bc

transformer.layers.0.self_attn.out_proj.bias f4 [64]
0.043827 -0.006764524 -0.085420094 0.019442594 -0.030956486 0.085327506 -0.0111667095 0.02472192
-0.054258645 0.003343676 0.04512053 -0.003119344 0.070720814 0.022542918 -0.051020466 0.011782849
0.04825866 -0.0774367 -0.0008691829 -0.021975566 0.013598054 0.07512902 -0.0022496397 0.023586862
0.06766028 0.010632487 -0.0009504414 -0.02007003 0.024180992 -0.086098045 -0.018713607 -0.023899775
0.03127499 -0.022031108 -0.0019155218 0.022830708 0.023409182 0.0267433 -0.06456114 -0.04269215
-0.011084358 0.038081978 -0.03934251 0.05275405 -0.01964164 0.0038115724 0.001976465 0.03517997
0.0104177315 0.0077791605 0.022696951 0.02696088 -0.02826842 0.045755077 0.019953856 -0.041965667
-0.055149674 0.0076411357 -0.10707361 -0.04631218 -0.04728209 0.019905979 -0.022802858 -0.018513715
00000000: f183 333d f1a8 ddbb bbf0 aebd 1346 9f3c
00000010: 7598 fdbc 30c0 ae3d 93f4 36bc a085 ca3c
00000020: 503e 5ebd 9321 5b3b 4ed0 383d e86d 4cbb
00000030: 13d6 903d edab b83c d6fa 50bd da0c 413c
00000040: dfaa 453d 2297 9ebd e1d9 63ba 1a06 b4bc
00000050: 5fca 5e3c 3edd 993d b16e 13bb 3c39 c13c
00000060: 7991 8a3d e233 2e3c 0b27 79ba e769 a4bc
00000070: 3717 c63c 2c54 b0bd 474d 99bc 76c9 c3bc
00000080: 341a 003d 957a b4bc 3f12 fbba 7707 bb3c
00000090: 9dc4 bf3c c414 db3c a238 84bd f7dd 2ebd
000000a0: 2b9b 35bc d9fb 1b3d 9d25 21bd a114 583d
000000b0: 81e7 a0bc 93cb 793b 9587 013b df18 103d
000000c0: 22af 2a3c 54e8 fe3b f5ee b93c 10dd dc3c
000000d0: 2c93 e7bc ad69 3b3d 4576 a33c 31e4 2bbd
000000e0: a0e4 61bd 7e62 fa3b 6949 dbbd d7b1 3dbd
000000f0: ddaa 41bd dd11 a33c 0fcd babc 13aa 97bc

transformer.layers.0.linear1.bias f4 [128]
0.042470645 0.008232715 -0.10077312 -0.11725948 -0.10807282 -0.05592674 -0.14767747 -0.118707456
-0.100824095 -0.10571586 -0.14723244 -0.1223467 -0.06431916 0.037695277 -0.006955859 -0.08996472
0.08253533 -0.14520697 0.07230341 0.067845196 -0.007490798 0.076095186 0.06295796 -0.12941095
-0.04114599 -0.0981323 -0.1001631 -0.15567537 -0.045833096 -0.07739986 -0.174623 0.03883109
-0.019766513 -0.0076435944 -0.10071084 -0.07578589 0.06760905 -0.07773851 0.078611694 0.01605009
-0.09968882 0.024552334 -0.05607655 -0.13182336 -0.1543147 -0.06917492 -0.15835646 -0.0059050964
-0.14224534 0.024725188 -0.14646363 -0.008872283 -0.0078104236 0.028205432 -0.041325472 0.06746272
-0.13648371 0.078990616 -0.09658328 -0.0094864275 0.043376468 0.083892636 0.08726495 -0.07689968
0.0102225 -0.11967216 0.061186526 -0.13665465 -0.0068685017 -0.08642247 -0.017240282 -0.13537951
-0.11651797 0.001945763 -0.046830103 -0.15758142 0.01799595 -0.15015209 -0.0071339705 -0.118574396
-0.049486853 -0.04765378 -0.10285072 -0.06558112 -0.17240825 -0.00994424 -0.13363656 -0.14480145
-0.006362568 0.03269017 -0.041078642 -0.060367893 0.024945121 0.021157674 -0.029485926 -0.037521794
-0.0474811 -0.0101529425 -0.0703287 -0.060631998 -0.0754647 0.026712095 0.047290917 -0.01746787
-0.04621247 -0.05248413 -0.15353106 -0.031974245 -0.091028325 -0.022088224 0.025122188 -0.14150415
0.012490255 -0.09188225 -0.07442264 0.0043132007 0.00452164 -0.02015648 0.009437294 -0.06866639
-0.1356097 -0.048174318 0.022474801 -0.16790514 -0.12369723 0.018081939 -0.06596375 0.015959786
00000000: b3f5 2d3d 82e2 063c 2362 cebd bd25 f0bd
00000010: 4855 ddbd 7013 65bd c338 17be e51c f3bd
00000020: dd7c cebd 8f81 d8bd 1ac4 16be e890 fabd
00000030: c4b9 83bd 5d66 1a3d f9ed e3bb 6c3f b8bd
00000040: 4808 a93d 23b1 14be cf13 943d 6cf2 8a3d
00000050: 5e75 f5bb cbd7 9b3d 1af0 803d 4e84 04be
00000060: b388 28bd 96f9 c8bd 5022 cdbd 5d69 1fbe
00000070: 7cbb 3bbd d183 9ebd 5fd0 32be 590d 1f3d
00000080: 62ed a1bc 1e77 fabb 7c41 cebd a235 9bbd
00000090: 9d76 8a3d 5e35 9fbd 2bff a03d 7a7b 833c
000000a0: a729 ccbd fa21 c93c 86b0 65bd b4fc 06be
000000b0: ac04 1ebe 95ab 8dbd 3228 22be 8a7f c1bb
000000c0: c3a8 11be 7a8c ca3c 90fa 15be 0d5d 11bc
000000d0: 95ee ffbb 140f e73c e644 29bd e529 8a3d
000000e0: 63c2 0bbe d5c5 a13d 74cd c5bd f66c 1bbc
000000f0: 86ab 313d e7cf ab3d f7b7 b23d 947d 9dbd
00000100: 467c 273c ad16 f5bd b99e 7a3d 32ef 0bbe
00000110: 2b11 e1bb 44fe b0bd 7e3b 8dbc eda0 0abe
00000120: f9a0 eebd f908 ff3a ecd0 3fbd 065d 21be
00000130: 3e6c 933c 78c1 19be 15c4 e9bb 22d7 f2bd
00000140: bab2 4abd 9c30 43bd 66a3 d2bd 654f 86bd
00000150: ca8b 30be 2aed 22bc 06d8 08be d546 14be
00000160: 177d d0bb 21e6 053d 1442 28bd 5344 77bd
00000170: b659 cc3c dc52 ad3c 788c f1bc 74b0 19bd
00000180: 8b7b 42bd 8758 26bc 7e08 90bd 4259 78bd
00000190: 3d8d 9abd 53d3 da3c 1fb4 413d c718 8fbc
000001a0: 4949 3dbd 99f9 56bd 3f37 1dbe 6df7 02bd
000001b0: 0f6d babd 5df2 b4bc 0ccd cd3c 77e6 10be
000001c0: eda3 4c3c c32c bcbd e66a 98bd c055 8d3b
000001d0: 442a 943b 341f a5bc e19e 1a3c f7a0 8cbd
000001e0: 45dd 0abe 6f52 45bd 131d b83c 53ef 2bbe
000001f0: f954 fdbd 9320 943c 0118 87bd 19be 823c

transformer.layers.0.linear2.bias f4 [64]
0.037376646 0.04716004 0.06473329 0.055292614 -0.0065296246 0.04153071 0.012059001 0.024991304
0.012527892 -0.09997915 -0.020995172 -0.026685819 0.0045617837 -0.0691974 0.009813891 0.016271016
0.044143192 0.013265241 0.11049741 -0.042173557 0.05490633 0.089060016 0.02891698 -0.032727204
0.0050148102 -0.036259737 0.042628955 -0.04122447 0.056096327 -0.14930505 -0.08093794 0.0284142
0.07507266 -0.012988562 -0.012549351 0.030578293 0.038663816 -0.009822295 0.029212486 -0.046046756
-0.10113385 0.067164846 0.064286366 0.10004429 0.07975432 0.037172373 -0.015625983 0.044863556
0.046651125 -0.00059037196 -0.047945414 -0.010412725 0.051973708 0.08049129 -0.052327592 0.03374497
-0.10184572 0.09559886 -0.10590448 -0.01752585 0.028989753 0.014953486 -0.03094241 -0.12891313
00000000: 4118 193d e32a 413d e392 843d 827a 623d
00000010: 76f6 d5bb 1b1c 2a3d 1e93 453c 90ba cc3c
00000020: ca41 4d3c dec1 ccbd 11fe abbc 389c dabc
00000030: 047b 953b 5eb7 8dbd 71ca 203c cb4a 853c
00000040: 7ecf 343d 7456 593c 774c e23d 2ebe 2cbd
00000050: 76e5 603d 1965 b63d 4de3 ec3c f60c 06bd
00000060: 4753 a43b 1785 14bd b39b 2e3d fdda 28bd
00000070: 43c5 653d 6ce3 18be cac2 a5bd e5c4 e83c
00000080: b2bf 993d facd 54bc cb9b 4dbc 547f fa3c
00000090: f35d 1e3d b1ed 20bc 064f ef3c 869b 3cbd
000000a0: 441f cfbd b98d 893d 92a8 833d 05e4 cc3d
000000b0: 3c56 a33d 0f42 183d 1002 80bc d9c2 373d
000000c0: 4015 3f3d 31c3 1aba 6962 44bd 229a 2abc
000000d0: 62e2 543d 9ed8 a43d 7555 56bd 2a38 0a3d
000000e0: 7d94 d0bd 56c9 c33d 73e4 d8bd 5f92 8fbc
000000f0: eb7b ed3c 77ff 743c f07a fdbc ce01 04be

transformer.layers.0.norm1.weight f4 [64]
0.9858571 1.1869812 0.9218524 1.0069963 1.0290518 0.8939053 1.0962958 0.954417
0.9476921 1.1984711 1.0106478 1.0391704 0.8799804 1.0144631 0.9671689 1.0335311
0.9630407 0.95463395 1.1156671 1.1252444 1.0890567 0.9313091 1.0404205 1.0626152
0.97654694 1.1493049 1.0550209 1.1024122 0.9947905 0.8657503 0.95946395 0.94896376
0.9753308 1.0394758 1.3047416 1.0293974 0.99314046 0.9744107 1.1326334 0.9467715
0.9941297 0.9993866 1.0122776 1.0255044 0.9810609 0.9694559 1.0338831 1.0185112
1.1281132 1.0664983 1.0366281 1.0881493 1.0857141 0.9312967 0.9628589 0.99650425
1.0042535 1.132259 0.84953964 0.9085468 0.9601165 1.0856903 0.96375215 0.94793344
00000000: 2261 7c3f 00ef 973f 85fe 6b3f 41e5 803f
00000010: f8b7 833f fad6 643f 6c53 8c3f ac54 743f
00000020: f39b 723f 8067 993f e85c 813f 8903 853f
00000030: 6546 613f edd9 813f 6298 773f bf4a 843f
00000040: d689 763f e462 743f 2ece 8e3f 0208 903f
00000050: 3666 8b3f 466a 6e3f 802c 853f c603 883f
00000060: fbfe 793f 6c1c 933f ed0a 873f d81b 8d3f
00000070: 97aa 7e3f d0a1 5d3f 6e9f 753f 4aef 723f
00000080: 48af 793f 8b0d 853f c601 a73f 4bc3 833f
00000090: 743e 7e3f fb72 793f 22fa 903f 9e5f 723f
000000a0: 497f 7e3f cdd7 7f3f 5092 813f ba43 833f
000000b0: cf26 7b3f 432e 783f 4856 843f 935e 823f
000000c0: 0366 903f 0483 883f 3bb0 843f 7a48 8b3f
000000d0: aef8 8a3f 7669 6e3f ec7d 763f e71a 7f3f
000000e0: 618b 803f dded 903f 6e7b 593f 8696 683f
000000f0: 32ca 753f e6f7 8a3f 76b8 763f c4ab 723f

transformer.layers.0.norm1.bias f4 [64]
0.062181436 -4.047932e-05 -0.107153736 0.052122615 -0.066419005 0.1567258 0.019348044 0.06520992
-0.07617794 -0.04105798 0.06961259 -0.06508888 0.16139293 0.074190624 -0.09239324 0.06570429
0.0990487 -0.14283751 0.003009728 0.0028878956 0.0672309 0.0760225 -0.07648508 0.07229852
0.060248606 -0.057087854 0.05258549 -0.090363875 0.08261661 -0.14281909 -0.07643521 -0.07171102
0.061059542 -0.057109386 0.03025397 0.0013734166 0.043967243 0.04666167 -0.04443833 -0.094356745
-0.07860882 0.05976421 -0.0688356 0.11210279 -0.03749635 0.031753033 0.033786174 0.071074955
0.117110424 0.019736033 -0.0093969535 0.02246956 -0.0021624893 0.08819051 -0.030000823 -0.06706357
-0.087597646 -0.014222299 -0.15899615 -0.122898765 -0.07536752 0.04973365 -0.06193723 -0.106528535
00000000: f6b1 7e3d 57c8 29b8 6b73 dbbd 867e 553d
00000010: b006 88bd ba7c 203e ca7f 9e3c c78c 853d
00000020: 2e03 9cbd 6a2c 28bd 0c91 8e3d 524d 85bd
00000030: 3044 253e 41f1 973d ab38 bdbd f98f 863d
00000040: 0bda ca3d ff43 12be db3e 453b d942 3d3b
00000050: 5bb0 893d afb1 9b3d 36a4 9cbd 3f11 943d
00000060: 3ec7 763d f4d4 69bd e263 573d b210 b9bd
00000070: e632 a93d 2b3f 12be 108a 9cbd 3add 92bd
00000080: 9219 7a3d 88eb 69bd 2cd7 f73c 3704 b43a
00000090: ff16 343d 4f20 3f3d f704 36bd 1c3e c1bd
000000a0: a9fd a0bd 51cb 743d aef9 8cbd 2696 e53d
000000b0: c695 19bd 780f 023d 5f63 0a3d bf8f 913d
000000c0: 97d7 ef3d 76ad a13c aef5 19bc 1512 b83c
000000d0: 8db8 0dbb 3a9d b43d 49c4 f5bc a058 89bd
000000e0: 6566 b3bd a504 69bc e3cf 22be 59b2 fbbd
000000f0: 495a 9abd 83b5 4b3d e5b1 7dbd a22b dabd

transformer.layers.0.norm2.weight f4 [64]
1.0269653 1.1447484 0.9804944 0.96278375 1.0346304 0.9105853 1.0705496 0.9180982
0.9380709 1.1642591 0.9845828 1.0275742 0.8853931 1.0254927 0.99518746 0.98804575
0.9640374 0.9905103 1.1074402 1.1326313 1.0755273 0.9146726 1.0490592 1.0629505
0.9724904 1.1128665 1.0646135 1.0349867 1.0233638 0.9374893 0.98486364 0.93191695
0.96652114 1.050922 1.1493936 1.039355 1.0127618 0.9371724 1.0894414 0.9532352
1.0612973 1.004513 0.98890984 1.0470976 0.99529314 0.9854764 1.0109458 0.99068236
1.0364894 1.0968608 1.0374291 1.0118244 1.0764049 0.95850676 0.94841117 1.0342201
1.0043715 1.1437514 0.8869991 0.9631364 0.9090158 1.1291517 0.9745684 0.94823384
00000000: 9973 833f 1e87 923f ae01 7b3f ff78 763f
00000010: c56e 843f 1e1c 693f c507 893f 7c08 6b3f
00000020: 6a25 703f 7106 953f 9e0d 7c3f 8d87 833f
00000030: 1fa9 623f 5843 833f 9bc4 7e3f 91f0 7c3f
00000040: 28cb 763f 1592 7d3f 9ac0 8d3f 10fa 903f
00000050: e1aa 893f fc27 6a3f 9247 863f c30e 883f
00000060: 21f5 783f 6972 8e3f 4145 883f 727a 843f
00000070: 96fd 823f 4cff 6f3f 0620 7c3f 1c92 6e3f
00000080: ee6d 773f 9d84 863f 541f 933f 9609 853f
00000090: 2ea2 813f 88ea 6f3f d172 8b3f 3907 743f
000000a0: 97d8 873f e293 803f 3229 7d3f 4b07 863f
000000b0: 88cb 7e3f 2e48 7c3f ac66 813f 5c9d 7d3f
000000c0: afab 843f ef65 8c3f 7aca 843f 7683 813f
000000d0: a3c7 893f b360 753f 13cb 723f 5361 843f
000000e0: 3f8f 803f 7266 923f 5f12 633f 1b90 763f
000000f0: 42b5 683f 0b88 903f 517d 793f 74bf 723f

transformer.layers.0.norm2.bias f4 [64]
0.046554346 0.02739091 -0.060806666 0.053169154 -0.047038235 0.16147296 0.07983521 0.08490632
-0.07937007 -0.09328483 0.07064052 -0.19056033 0.11855342 0.04903902 -0.04691282 0.06621069
0.056873824 -0.08993707 0.054152973 -0.037367113 0.03902746 0.061540604 -0.042052533 0.04005965
0.039900593 -0.037779655 0.0670326 -0.04489672 0.0414177 -0.10138593 -0.0797438 -0.106187515
0.105572104 -0.04899383 -0.06465574 0.04330222 0.038270302 0.05737823 0.029064434 -0.09010174
-0.078423105 0.04703185 -0.08009437 0.055464327 0.0031692246 0.018952915 0.013215031 0.020920591
0.047602993 0.03132756 -0.00029485446 -0.007244465 0.05672066 0.10807367 -0.018593168 -0.06281669
-0.04311536 0.028278 -0.060336847 -0.08780057 -0.041322764 0.04477367 -0.05871914 -0.08033862
00000000: c5af 3e3d e762 e03c 6910 79bd e6c7 593d
00000010: 2aab 40bd 2b59 253e a580 a33d 5de3 ad3d
00000020: c68c a2bd 1e0c bfbd faab 903d 3f22 43be
00000030: 23cc f23d 24dd 483d a827 40bd 7899 873d
00000040: 87f4 683d ed30 b8bd 82cf 5d3d 420e 19bd
00000050: 42db 1f3d 0012 7c3d 473f 2cbd 9615 243d
00000060: ce6e 233d d7be 1abd 6348 893d a0e5 37bd
00000070: 9ba5 293d 6da3 cfbd b850 a3bd d778 d9bd
00000080: 3036 d83d c1ad 48bd 3b6a 84bd ab5d 313d
00000090: 52c1 1c3d 6f05 6b3d 8918 ee3c 4387 b8bd
000000a0: 4b9c a0bd 78a4 403d 8408 a4bd 902e 633d
000000b0: c4b2 4f3b 2543 9b3c db83 583c a961 ab3c
000000c0: 5bfb 423d 5451 003d b296 9ab9 fa62 edbb
000000d0: ec53 683d ba55 dd3d b350 98bc 09a6 80bd
000000e0: bb99 30bd 44a7 e73c c523 77bd c9d0 b3bd
000000f0: 0f42 29bd 9964 373d 7b83 70bd 9388 a4bd

transformer.layers.1.self_attn.in_proj_bias f4 [192]
0.058551423 -0.09660754 -0.1113408 -0.0033721556 0.08400652 0.09612648 -0.09240204 0.040348668
0.031599138 -0.09910565 0.016723024 -0.023133824 0.019609218 -0.095125295 0.05710635 -0.0019211299
-0.00031371522 -0.06544404 0.010450222 0.06944567 -0.080411956 -0.01960717 -0.06796982 -0.0024388249
-0.020775236 -0.05052777 0.06694613 -0.00730282 0.08604497 -0.097864576 -0.040673625 -0.03679935
0.007556651 0.013365281 -0.01943088 -0.0075209346 -0.017026074 -0.03288338 0.02150702 -0.016350592
0.07486556 0.043409236 -0.013576781 -0.0017332338 0.10373276 -0.09130913 0.027401807 0.04768653
0.05442049 -0.027479418 0.062527075 -0.013446301 -0.06259198 0.023880873 -0.01977249 0.006694147
-0.06631483 0.076651335 0.043028224 -0.0010940436 0.025070319 0.11623638 -0.08745438 0.046135776
-0.0071790027 0.013068742 0.10541786 -0.001530305 -0.028406264 -0.025971955 0.04611209 -0.025414187
-0.0007599195 -0.009987985 0.0038090055 0.00025630667 0.0010277526 -0.00699773 0.008615489 -0.0016741337
0.009047847 -0.012335121 -0.009830001 0.040460702 -0.025280831 0.0151368035 0.0028356514 -0.0017193474
-0.04101504 -0.010638708 0.039920885 -0.009416302 0.11556695 -0.087373495 -0.09022128 -0.02983748
-0.0043858453 0.005699871 0.0035296227 -0.0025561394 0.013728968 -0.0013967179 0.00015072199 -0.0057420637
0.036380418 0.0073849144 0.013716832 0.029703297 0.030343138 -0.042549055 -0.007433779 -0.0036220201
0.005123359 -0.002699325 0.000119041455 -0.0015753286 -0.0063696154 -0.00030283481 -0.001085356 -0.0051200315
0.0073695676 0.028903184 0.0039490312 0.033656385 0.023018958 -0.044005096 -0.022271406 -0.013235005
-0.0046372134 -0.021010324 -0.013748827 -0.0145286415 0.018183269 0.027539643 0.0033110392 -0.02117314
-0.0029974678 0.029278932 -0.03354969 -0.001640605 0.014041309 -0.01754883 0.011329645 -0.02803767
-0.047134425 -0.05546829 -0.0077850497 -0.018849272 -0.025662435 -0.020554787 0.022806255 0.01972012
0.05763191 0.0025399125 0.030475767 -0.026236936 -0.032648817 -0.037349373 0.03373613 -0.009236134
0.0039220056 0.021242036 0.010777881 -0.031062536 0.043018617 -0.00977924 -0.03295029 -0.021606436
0.020177355 -0.009805564 -0.011765736 0.0030698362 0.024934195 0.009191827 -0.030285925 0.00055411167
0.0007805745 0.000261854 0.0020172866 0.011198739 -0.03316344 0.03764075 -0.006348802 0.022348583
0.0070254286 -0.044416368 -0.03684268 -0.027646158 0.014036291 -0.004583179 -0.013574839 -0.013193176
00000000: 9ed3 6f3d 2dda c5bd a506 e4bd 62ff 5cbb
00000010: 9c0b ac3d f6dd c43d 483d bdbd a544 253d
00000020: 196e 013d e7f7 cabd b9fe 883c 2583 bdbc
00000030: 83a3 a03c 0dd1 c2bd 59e8 693d 6cce fbba
00000040: 257a a4b9 8607 86bd 6837 2b3c 8839 8e3d
00000050: 06af a4bd 379f a0bc c333 8bbd b1d4 1fbb
00000060: d430 aabc 35f6 4ebd 0d1b 893d 7f4c efbb
00000070: 5838 b03d 396d c8bd 6399 26bd eaba 16bd
00000080: c89d f73b 0dfa 5a3c 822d 9fbc 2c72 f6bb
00000090: 447a 8bbc b9b0 06bd 7d2f b03c adf1 85bc
000000a0: 1d53 993d e2cd 313d 2671 5ebc ad2d e3ba
000000b0: d771 d43d 4800 bbbd c179 e03c f352 433d
000000c0: 05e8 5e3d 841c e1bc 320e 803d e04d 5cbc
000000d0: 3930 80bd d2a1 c33c ebf9 a1bc 935a db3b
000000e0: 12d0 87bd 60fb 9c3d 5d3e 303d 0366 8fba
000000f0: 4560 cd3c 570d ee3d 481b b3bd def8 3c3d
00000100: d73d ebbb 471e 563c 52e5 d73d 8494 c8ba
00000110: 41b4 e8bc 23c3 d4bc 08e0 3c3d 6a31 d0bc
00000120: 5635 47ba a5a4 23bc 82a0 793b e660 8639
00000130: a8b5 863a 374d e5bb fb27 0d3c 9b6e dbba
00000140: 6c3d 143c 3f19 4abc 030e 21bc 1fba 253d
00000150: bf19 cfbc 5b00 783c 56d6 393b ba5b e1ba
00000160: 63ff 27bd fa4d 2ebc 1584 233d d546 1abc
00000170: 5dae ec3d e0f0 b2bd efc5 b8bd bb6d f4bc
00000180: 23b7 8fbb fcc5 ba3b 3e51 673b e784 27bb
00000190: 77ef 603c 1312 b7ba 200b 1e39 ec27 bcbb
000001a0: a203 153d 27fd f13b 90bc 603c 5454 f33c
000001b0: 2c92 f83c eb47 2ebd 0f97 f3bb 6a5f 6dbb
000001c0: dae1 a73b 29e7 30bb e5a5 f938 427b ceba
000001d0: 35b8 d0bb cdc5 9eb9 8142 8eba f0c5 a7bb
000001e0: 6a7c f13b 5fc6 ec3c e066 813b 47db 093d
000001f0: 4192 bc3c b03e 34bd 8672 b6bc a2d7 58bc
00000200: c4f3 97bb d81d acbc c342 61bc 8a09 6ebc
00000210: 14f5 943c d19a e13c 05fe 583b 4b73 adbc
00000220: 2a71 44bb 5fda ef3c 666b 09bd 9209 d7ba
00000230: 850d 663c 90c2 8fbc fa9f 393c 41af e5bc
00000240: 0710 41bd b832 63bd bb19 ffbb ca69 9abc
00000250: 073a d2bc 8362 a8bc 2fd4 ba3c 178c a13c
00000260: 700f 6c3d a974 263b 51a8 f93c d8ee d6bc
00000270: c4ba 05bd a8fb 18bd e52e 0a3d 2753 17bc
00000280: 2b84 803b c703 ae3c b695 303c dc76 febc
00000290: 4a34 303d 1b39 20bc e2f6 06bd fbff b0bc
000002a0: fb4a a53c 84a7 20bc 13c5 40bc 4e2f 493b
000002b0: cc42 cc3c 5199 163c 301a f8bc ce41 113a
000002c0: 789f 4c3a 7349 8939 7434 043b ea7a 373c
000002d0: 63d6 07bd 302d 1a3d 9c09 d0bb 6014 b73c
000002e0: 9135 e63b f0ed 35bd 5ae8 16bd 327a e2bc
000002f0: 79f8 653c 7e2e 96bb 0069 5ebc 3128 58bc

transformer.layers.1.self_attn.out_proj.weight f4 [64, 64]
-0.024863472 -0.05525228 0.041586988 0.08106328 -0.04320678 0.062043477 0.021220146 -0.1351232
0.009751015 -0.028840441 0.108535506 0.022713762 -0.014876845 -0.0819442 0.055088993 -0.12279436
-0.07367958 -0.05893342 0.009563238 -0.030531457 0.11604493 -0.14798115 -0.12037306 0.0021803698
-0.10529153 -0.0016470818 0.19234627 -0.12945287 -0.28560844 -0.18141232 0.089148454 0.10262018
0.022666713 0.004490757 -0.13856974 -0.09468635 0.07788975 -0.008340523 -0.075867124 -0.054815825
0.07876944 0.09199846 -0.14864889 -0.04364772 -0.0732616 0.022227613 -0.14197654 0.06699183
0.111936055 0.124259435 0.049198214 0.0850667 -0.056291927 0.24145532 0.061516352 0.07671542
0.032240503 0.09314033 0.044318635 0.07516006 0.16507149 0.09489376 -0.02372389 -0.07194673
0.028666778 0.077610925 -0.13101366 -0.030172018 0.15830031 -0.071286306 -0.13654116 0.074145086
0.13548157 -0.023807764 0.19630244 0.0041383295 -0.041571014 -0.1891661 0.12748224 0.022316488
0.029956017 0.07611189 -0.04572386 -0.010357324 0.109658346 -0.11407807 -0.16180208 -0.06259285
0.043464497 0.09300893 -0.061999843 0.157469 0.014216696 0.08476704 -0.040333964 0.0071985233
-0.23714645 0.013816389 -0.14399898 0.16371638 -0.038076367 0.12613693 0.07036074 0.026810246
0.008158924 0.06256744 -0.2732232 -0.27707434 0.0004449339 -0.11816703 0.078637905 0.050926715
-0.03322283 0.029148605 -0.0014069211 0.048677415 0.051750366 0.087694965 0.015228419 -0.19364077
0.013251335 0.17502747 0.07834755 0.07657458 0.06956509 0.06914961 0.12103211 -0.098754056
0.14256936 -0.111269236 -0.12698056 -0.051786873 0.0619846 0.23938176 -0.070730045 -0.0048443633
-0.05772622 0.05243829 -0.05022509 -0.028516341 -0.11058714 0.0031828803 -0.07495129 -0.14220534
-0.12755907 0.022027249 0.023019955 -0.08665499 0.028781997 -0.001126749 0.08891235 -0.03033206
0.12285929 -0.07329346 0.22981352 -0.24347696 -0.16997203 -0.2317749 0.06440909 0.0008372442
-0.031854104 -0.09068567 -0.14424638 0.09300408 0.13318717 0.0661522 -0.005818616 0.1659624
0.05443151 0.08787421 0.086165585 0.014427173 -0.10325212 0.054491844 -0.1524097 -0.048105672
-0.093755044 -0.08571046 0.1772608 -0.08274918 0.12074925 0.07808768 0.032094408 0.10440029
0.062230352 0.02147898 0.023223095 -0.06522738 0.047890432 -0.070339896 0.16426983 0.12736247
0.05779972 0.09283493 -0.053836115 -0.04912941 -0.015620472 -0.048677947 0.025284389 0.03696074
0.085546084 0.034905627 0.08445113 -0.068168946 0.071517594 -0.03035339 -0.017261995 -0.009155927
0.15639074 0.02347221 0.09963024 0.08564459 -0.12269567 -0.13853216 0.12061059 -0.14952207
0.018858368 -0.08589091 0.34290338 0.0013038061 -0.11343741 0.050051525 0.31038478 0.04143893
-0.13237424 -0.010164079 -0.14264706 0.005141706 0.009340714 -0.08397072 0.11793176 0.02065414
-0.08166657 0.1647532 -0.19512807 -0.033111066 -0.06196988 0.0530715 -0.09167525 -0.02850182
-0.018746747 0.02302375 0.11591616 0.110341094 -0.018938929 -0.019200258 -0.10692528 0.1150252
-0.070560835 0.16029795 -0.023278411 0.07522091 0.15066995 0.13479039 0.13499877 0.04600347
00000000: 7bae cbbc 3750 62bd 1e57 2a3d 8104 a63d
00000010: 98f9 30bd 4d21 7e3d dfd5 ad3c bc5d 0abe
00000020: b9c2 1f3c ca42 ecbc dd47 de3d 3612 ba3c
00000030: 03be 73bc 5cd2 a7bd ffa4 613d 9c7b fbbd
00000040: 52e5 96bd 2b64 71bd 21af 1c3c 1b1d fabc
00000050: f7a8 ed3d 5f88 17be 2786 f6bd 89e4 0e3b
00000060: 16a3 d7bd e5e2 d7ba 6cf6 443e 4b8f 04be
00000070: 453b 92be 27c4 39be 7793 b63d 872a d23d
00000080: 8baf b93c 3327 933b 3ae5 0dbe ebea c1bd
00000090: a984 9f3d b0a6 08bc 3960 9bbd 8f86 60bd
000000a0: df51 a13d b069 bc3d 6a37 18be f4c7 32bd
000000b0: 2e0a 96bd af16 b63c 4c62 11be 0333 893d
000000c0: bb3e e53d bb7b fe3d 1184 493d 7337 ae3d
000000d0: 5d92 66bd 1040 773e 92f8 7b3d f91c 9d3d
000000e0: 9e0e 043d 5bc0 be3d 7587 353d 84ed 993d
000000f0: 8008 293e a957 c23d 9a58 c2bc cf58 93bd
00000100: 97d6 ea3c 7af2 9e3d 7228 06be 4f2b f7bc
00000110: 7a19 223e 8efe 91bd 72d1 0bbe 61d9 973d
00000120: aebb 0a3e 8008 c3bc 8203 493e d39a 873b
00000130: 5e46 2abd c2b4 41be b48a 023e 11d1 b63c
00000140: 5266 f53c 8de0 9b3d f148 3bbd c4b1 29bc
00000150: 8e94 e03d c3a1 e9bd 72af 25be ae30 80bd
00000160: d407 323d 777b be3d 8cf3 7dbd 8e3f 213e
00000170: 25ed 683c 589a ad3d 3a35 25bd 97e1 eb3b
00000180: 85d6 72be 235e 623c 7874 13be 44a5 273e
00000190: f7f5 1bbd 0a2a 013e 4b19 903d 29a1 db3c
000001a0: 02ad 053c 5c23 803d e9e3 8bbe b0dc 8dbe
000001b0: 0446 e939 8e01 f2bd e90c a13d 8898 503d
000001c0: aa14 08bd 0ec9 ee3c 7068 b8ba f861 473d
000001d0: 31f8 533d 6b99 b33d 9e80 793c c449 46be
000001e0: 211c 593c 673a 333e ae74 a03d 22d3 9c3d
000001f0: 2478 8e3d 509e 8d3d afdf f73d 913f cabd
00000200: b4fd 113e 20e1 e3bd 3107 02be 791e 54bd
00000210: 90e3 7d3d 7e20 753e eada 90bd 77bd 9ebb
00000220: 5472 6cbd 88c9 563d d3b8 4dbd 1a9b e9bc
00000230: 837b e2bd df97 503b 1080 99bd 479e 11be
00000240: d89e 02be 7d72 b43c 5894 bc3c 2c78 b1bd
00000250: 39c8 eb3c 6caf 93ba ae17 b63d f17a f8bc
00000260: a79d fb3d e21a 96bd 3c54 6b3e 0652 79be
00000270: 260d 2ebe 6656 6dbe eae8 833d 827a 5b3a
00000280: 7379 02bd 69b9 b9bd 53b5 13be ec78 be3d
00000290: 3862 083e ce7a 873d 17aa bebb 0cf2 293e
000002a0: 93f3 5e3d 65f7 b33d 9577 b03d f35f 6c3c
000002b0: d975 d3bd d732 5f3d 4a11 1cbe 740a 45bd
000002c0: a502 c0bd f788 afbd db83 353e 6778 a9bd
000002d0: 624b f73d 6fec 9f3d 6d75 033d d2cf d53d
000002e0: 41e5 7e3d b0f4 af3c 5c3e be3c ef95 85bd
000002f0: c228 443d 5d0e 90bd 5a36 283e 4f6b 023e
00000300: 66bf 6c3d 3d20 be3d 4283 5cbd ec3b 49bd
00000310: 02ed 7fbc 8762 47bd 3521 cf3c 2564 173d
00000320: c932 af3d 34f9 0e3d b7f4 ac3d 299c 8bbd
00000330: d177 923d aca7 f8bc 0769 8dbc be02 16bc
00000340: e524 203e cb48 c03c f00a cc3d 6e66 af3d
00000350: de47 fbbd 60db 0dbe af02 f73d 501c 19be
00000360: dd7c 9a3c 93e7 afbd 0891 af3e 79e4 aa3a
00000370: df51 e8bd d402 4d3d c1ea 9e3e debb 293d
00000380: 1d8d 07be 3d87 26bc 1212 12be c27b a83b
00000390: cb09 193c d7f8 abbd 3586 f13d df32 a93c
000003a0: cd40 a7bd 10b5 283e a7cf 47be 789f 07bd
000003b0: 21d4 7dbd 8061 593d 3cc0 bbbd a67c e9bc
000003c0: c792 99bc 4e9c bc3c 7465 ed3d 83fa e13d
000003d0: d025 9bbc dc49 9dbc a4fb dabd 5592 eb3d
000003e0: 3382 90bd 2525 243e 5eb2 bebc 6c0d 9a3d
000003f0: 3949 1a3e 7e06 0a3e 1e3d 0a3e 226e 3c3d
